<?xml version="1.0" ?>
<net name="tiny-yolov3-11" version="10">
	<layers>
		<layer id="0" name="image_shape" type="Parameter" version="opset1">
			<data element_type="f16" shape="1, 2"/>
			<output>
				<port id="0" names="image_shape" precision="FP16">
					<dim>1</dim>
					<dim>2</dim>
				</port>
			</output>
		</layer>
		<layer id="1" name="input_1" type="Parameter" version="opset1">
			<data element_type="f16" shape="1, 3, 416, 416"/>
			<output>
				<port id="0" names="input_1" precision="FP16">
					<dim>1</dim>
					<dim>3</dim>
					<dim>416</dim>
					<dim>416</dim>
				</port>
			</output>
		</layer>
		<layer id="2" name="batch_normalization_1/mean/Fused_Mul__copy" type="Const" version="opset1">
			<data element_type="f16" offset="0" shape="16, 3, 3, 3" size="864"/>
			<output>
				<port id="0" names="conv2d_1/kernel:0" precision="FP16">
					<dim>16</dim>
					<dim>3</dim>
					<dim>3</dim>
					<dim>3</dim>
				</port>
			</output>
		</layer>
		<layer id="3" name="conv2d_1" type="Convolution" version="opset1">
			<data auto_pad="same_upper" dilations="1, 1" pads_begin="1, 1" pads_end="1, 1" strides="1, 1"/>
			<input>
				<port id="0" precision="FP16">
					<dim>1</dim>
					<dim>3</dim>
					<dim>416</dim>
					<dim>416</dim>
				</port>
				<port id="1" precision="FP16">
					<dim>16</dim>
					<dim>3</dim>
					<dim>3</dim>
					<dim>3</dim>
				</port>
			</input>
			<output>
				<port id="2" precision="FP16">
					<dim>1</dim>
					<dim>16</dim>
					<dim>416</dim>
					<dim>416</dim>
				</port>
			</output>
		</layer>
		<layer id="4" name="data_add_10303" type="Const" version="opset1">
			<data element_type="f16" offset="864" shape="1, 16, 1, 1" size="32"/>
			<output>
				<port id="0" precision="FP16">
					<dim>1</dim>
					<dim>16</dim>
					<dim>1</dim>
					<dim>1</dim>
				</port>
			</output>
		</layer>
		<layer id="5" name="batch_normalization_1/variance/Fused_Add_" type="Add" version="opset1">
			<data auto_broadcast="numpy"/>
			<input>
				<port id="0" precision="FP16">
					<dim>1</dim>
					<dim>16</dim>
					<dim>416</dim>
					<dim>416</dim>
				</port>
				<port id="1" precision="FP16">
					<dim>1</dim>
					<dim>16</dim>
					<dim>1</dim>
					<dim>1</dim>
				</port>
			</input>
			<output>
				<port id="2" names="batch_norm_output_buffer10" precision="FP16">
					<dim>1</dim>
					<dim>16</dim>
					<dim>416</dim>
					<dim>416</dim>
				</port>
			</output>
		</layer>
		<layer id="6" name="leaky_re_lu_1/weights1493321402" type="Const" version="opset1">
			<data element_type="f32" offset="896" shape="1" size="4"/>
			<output>
				<port id="0" precision="FP32">
					<dim>1</dim>
				</port>
			</output>
		</layer>
		<layer id="7" name="leaky_re_lu_1" type="PReLU" version="opset1">
			<input>
				<port id="0" precision="FP16">
					<dim>1</dim>
					<dim>16</dim>
					<dim>416</dim>
					<dim>416</dim>
				</port>
				<port id="1" precision="FP32">
					<dim>1</dim>
				</port>
			</input>
			<output>
				<port id="2" names="model_1/leaky_re_lu_1/LeakyRelu:0" precision="FP16">
					<dim>1</dim>
					<dim>16</dim>
					<dim>416</dim>
					<dim>416</dim>
				</port>
			</output>
		</layer>
		<layer id="8" name="model_1/leaky_re_lu_1/LeakyRelu:0_pooling" type="MaxPool" version="opset1">
			<data auto_pad="same_upper" kernel="2, 2" pads_begin="0, 0" pads_end="0, 0" rounding_type="ceil" strides="2, 2"/>
			<input>
				<port id="0" precision="FP16">
					<dim>1</dim>
					<dim>16</dim>
					<dim>416</dim>
					<dim>416</dim>
				</port>
			</input>
			<output>
				<port id="1" names="model_1/leaky_re_lu_1/LeakyRelu:0_pooling0" precision="FP16">
					<dim>1</dim>
					<dim>16</dim>
					<dim>208</dim>
					<dim>208</dim>
				</port>
			</output>
		</layer>
		<layer id="9" name="batch_normalization_2/mean/Fused_Mul__copy" type="Const" version="opset1">
			<data element_type="f16" offset="900" shape="32, 16, 3, 3" size="9216"/>
			<output>
				<port id="0" names="conv2d_2/kernel:0" precision="FP16">
					<dim>32</dim>
					<dim>16</dim>
					<dim>3</dim>
					<dim>3</dim>
				</port>
			</output>
		</layer>
		<layer id="10" name="conv2d_2" type="Convolution" version="opset1">
			<data auto_pad="same_upper" dilations="1, 1" pads_begin="1, 1" pads_end="1, 1" strides="1, 1"/>
			<input>
				<port id="0" precision="FP16">
					<dim>1</dim>
					<dim>16</dim>
					<dim>208</dim>
					<dim>208</dim>
				</port>
				<port id="1" precision="FP16">
					<dim>32</dim>
					<dim>16</dim>
					<dim>3</dim>
					<dim>3</dim>
				</port>
			</input>
			<output>
				<port id="2" precision="FP16">
					<dim>1</dim>
					<dim>32</dim>
					<dim>208</dim>
					<dim>208</dim>
				</port>
			</output>
		</layer>
		<layer id="11" name="data_add_1030610311" type="Const" version="opset1">
			<data element_type="f16" offset="10116" shape="1, 32, 1, 1" size="64"/>
			<output>
				<port id="0" precision="FP16">
					<dim>1</dim>
					<dim>32</dim>
					<dim>1</dim>
					<dim>1</dim>
				</port>
			</output>
		</layer>
		<layer id="12" name="batch_normalization_2/variance/Fused_Add_" type="Add" version="opset1">
			<data auto_broadcast="numpy"/>
			<input>
				<port id="0" precision="FP16">
					<dim>1</dim>
					<dim>32</dim>
					<dim>208</dim>
					<dim>208</dim>
				</port>
				<port id="1" precision="FP16">
					<dim>1</dim>
					<dim>32</dim>
					<dim>1</dim>
					<dim>1</dim>
				</port>
			</input>
			<output>
				<port id="2" names="batch_norm_output_buffer9" precision="FP16">
					<dim>1</dim>
					<dim>32</dim>
					<dim>208</dim>
					<dim>208</dim>
				</port>
			</output>
		</layer>
		<layer id="13" name="leaky_re_lu_2/weights1493721339" type="Const" version="opset1">
			<data element_type="f32" offset="896" shape="1" size="4"/>
			<output>
				<port id="0" precision="FP32">
					<dim>1</dim>
				</port>
			</output>
		</layer>
		<layer id="14" name="leaky_re_lu_2" type="PReLU" version="opset1">
			<input>
				<port id="0" precision="FP16">
					<dim>1</dim>
					<dim>32</dim>
					<dim>208</dim>
					<dim>208</dim>
				</port>
				<port id="1" precision="FP32">
					<dim>1</dim>
				</port>
			</input>
			<output>
				<port id="2" names="model_1/leaky_re_lu_2/LeakyRelu:0" precision="FP16">
					<dim>1</dim>
					<dim>32</dim>
					<dim>208</dim>
					<dim>208</dim>
				</port>
			</output>
		</layer>
		<layer id="15" name="model_1/leaky_re_lu_2/LeakyRelu:0_pooling" type="MaxPool" version="opset1">
			<data auto_pad="same_upper" kernel="2, 2" pads_begin="0, 0" pads_end="0, 0" rounding_type="ceil" strides="2, 2"/>
			<input>
				<port id="0" precision="FP16">
					<dim>1</dim>
					<dim>32</dim>
					<dim>208</dim>
					<dim>208</dim>
				</port>
			</input>
			<output>
				<port id="1" names="model_1/leaky_re_lu_2/LeakyRelu:0_pooling0" precision="FP16">
					<dim>1</dim>
					<dim>32</dim>
					<dim>104</dim>
					<dim>104</dim>
				</port>
			</output>
		</layer>
		<layer id="16" name="batch_normalization_3/mean/Fused_Mul__copy" type="Const" version="opset1">
			<data element_type="f16" offset="10180" shape="64, 32, 3, 3" size="36864"/>
			<output>
				<port id="0" names="conv2d_3/kernel:0" precision="FP16">
					<dim>64</dim>
					<dim>32</dim>
					<dim>3</dim>
					<dim>3</dim>
				</port>
			</output>
		</layer>
		<layer id="17" name="conv2d_3" type="Convolution" version="opset1">
			<data auto_pad="same_upper" dilations="1, 1" pads_begin="1, 1" pads_end="1, 1" strides="1, 1"/>
			<input>
				<port id="0" precision="FP16">
					<dim>1</dim>
					<dim>32</dim>
					<dim>104</dim>
					<dim>104</dim>
				</port>
				<port id="1" precision="FP16">
					<dim>64</dim>
					<dim>32</dim>
					<dim>3</dim>
					<dim>3</dim>
				</port>
			</input>
			<output>
				<port id="2" precision="FP16">
					<dim>1</dim>
					<dim>64</dim>
					<dim>104</dim>
					<dim>104</dim>
				</port>
			</output>
		</layer>
		<layer id="18" name="data_add_1031410319" type="Const" version="opset1">
			<data element_type="f16" offset="47044" shape="1, 64, 1, 1" size="128"/>
			<output>
				<port id="0" precision="FP16">
					<dim>1</dim>
					<dim>64</dim>
					<dim>1</dim>
					<dim>1</dim>
				</port>
			</output>
		</layer>
		<layer id="19" name="batch_normalization_3/variance/Fused_Add_" type="Add" version="opset1">
			<data auto_broadcast="numpy"/>
			<input>
				<port id="0" precision="FP16">
					<dim>1</dim>
					<dim>64</dim>
					<dim>104</dim>
					<dim>104</dim>
				</port>
				<port id="1" precision="FP16">
					<dim>1</dim>
					<dim>64</dim>
					<dim>1</dim>
					<dim>1</dim>
				</port>
			</input>
			<output>
				<port id="2" names="batch_norm_output_buffer8" precision="FP16">
					<dim>1</dim>
					<dim>64</dim>
					<dim>104</dim>
					<dim>104</dim>
				</port>
			</output>
		</layer>
		<layer id="20" name="leaky_re_lu_3/weights1494520961" type="Const" version="opset1">
			<data element_type="f32" offset="896" shape="1" size="4"/>
			<output>
				<port id="0" precision="FP32">
					<dim>1</dim>
				</port>
			</output>
		</layer>
		<layer id="21" name="leaky_re_lu_3" type="PReLU" version="opset1">
			<input>
				<port id="0" precision="FP16">
					<dim>1</dim>
					<dim>64</dim>
					<dim>104</dim>
					<dim>104</dim>
				</port>
				<port id="1" precision="FP32">
					<dim>1</dim>
				</port>
			</input>
			<output>
				<port id="2" names="model_1/leaky_re_lu_3/LeakyRelu:0" precision="FP16">
					<dim>1</dim>
					<dim>64</dim>
					<dim>104</dim>
					<dim>104</dim>
				</port>
			</output>
		</layer>
		<layer id="22" name="model_1/leaky_re_lu_3/LeakyRelu:0_pooling" type="MaxPool" version="opset1">
			<data auto_pad="same_upper" kernel="2, 2" pads_begin="0, 0" pads_end="0, 0" rounding_type="ceil" strides="2, 2"/>
			<input>
				<port id="0" precision="FP16">
					<dim>1</dim>
					<dim>64</dim>
					<dim>104</dim>
					<dim>104</dim>
				</port>
			</input>
			<output>
				<port id="1" names="model_1/leaky_re_lu_3/LeakyRelu:0_pooling0" precision="FP16">
					<dim>1</dim>
					<dim>64</dim>
					<dim>52</dim>
					<dim>52</dim>
				</port>
			</output>
		</layer>
		<layer id="23" name="batch_normalization_4/mean/Fused_Mul__copy" type="Const" version="opset1">
			<data element_type="f16" offset="47172" shape="128, 64, 3, 3" size="147456"/>
			<output>
				<port id="0" names="conv2d_4/kernel:0" precision="FP16">
					<dim>128</dim>
					<dim>64</dim>
					<dim>3</dim>
					<dim>3</dim>
				</port>
			</output>
		</layer>
		<layer id="24" name="conv2d_4" type="Convolution" version="opset1">
			<data auto_pad="same_upper" dilations="1, 1" pads_begin="1, 1" pads_end="1, 1" strides="1, 1"/>
			<input>
				<port id="0" precision="FP16">
					<dim>1</dim>
					<dim>64</dim>
					<dim>52</dim>
					<dim>52</dim>
				</port>
				<port id="1" precision="FP16">
					<dim>128</dim>
					<dim>64</dim>
					<dim>3</dim>
					<dim>3</dim>
				</port>
			</input>
			<output>
				<port id="2" precision="FP16">
					<dim>1</dim>
					<dim>128</dim>
					<dim>52</dim>
					<dim>52</dim>
				</port>
			</output>
		</layer>
		<layer id="25" name="data_add_1032210327" type="Const" version="opset1">
			<data element_type="f16" offset="194628" shape="1, 128, 1, 1" size="256"/>
			<output>
				<port id="0" precision="FP16">
					<dim>1</dim>
					<dim>128</dim>
					<dim>1</dim>
					<dim>1</dim>
				</port>
			</output>
		</layer>
		<layer id="26" name="batch_normalization_4/variance/Fused_Add_" type="Add" version="opset1">
			<data auto_broadcast="numpy"/>
			<input>
				<port id="0" precision="FP16">
					<dim>1</dim>
					<dim>128</dim>
					<dim>52</dim>
					<dim>52</dim>
				</port>
				<port id="1" precision="FP16">
					<dim>1</dim>
					<dim>128</dim>
					<dim>1</dim>
					<dim>1</dim>
				</port>
			</input>
			<output>
				<port id="2" names="batch_norm_output_buffer7" precision="FP16">
					<dim>1</dim>
					<dim>128</dim>
					<dim>52</dim>
					<dim>52</dim>
				</port>
			</output>
		</layer>
		<layer id="27" name="leaky_re_lu_4/weights1495320976" type="Const" version="opset1">
			<data element_type="f32" offset="896" shape="1" size="4"/>
			<output>
				<port id="0" precision="FP32">
					<dim>1</dim>
				</port>
			</output>
		</layer>
		<layer id="28" name="leaky_re_lu_4" type="PReLU" version="opset1">
			<input>
				<port id="0" precision="FP16">
					<dim>1</dim>
					<dim>128</dim>
					<dim>52</dim>
					<dim>52</dim>
				</port>
				<port id="1" precision="FP32">
					<dim>1</dim>
				</port>
			</input>
			<output>
				<port id="2" names="model_1/leaky_re_lu_4/LeakyRelu:0" precision="FP16">
					<dim>1</dim>
					<dim>128</dim>
					<dim>52</dim>
					<dim>52</dim>
				</port>
			</output>
		</layer>
		<layer id="29" name="model_1/leaky_re_lu_4/LeakyRelu:0_pooling" type="MaxPool" version="opset1">
			<data auto_pad="same_upper" kernel="2, 2" pads_begin="0, 0" pads_end="0, 0" rounding_type="ceil" strides="2, 2"/>
			<input>
				<port id="0" precision="FP16">
					<dim>1</dim>
					<dim>128</dim>
					<dim>52</dim>
					<dim>52</dim>
				</port>
			</input>
			<output>
				<port id="1" names="model_1/leaky_re_lu_4/LeakyRelu:0_pooling0" precision="FP16">
					<dim>1</dim>
					<dim>128</dim>
					<dim>26</dim>
					<dim>26</dim>
				</port>
			</output>
		</layer>
		<layer id="30" name="batch_normalization_5/mean/Fused_Mul__copy" type="Const" version="opset1">
			<data element_type="f16" offset="194884" shape="256, 128, 3, 3" size="589824"/>
			<output>
				<port id="0" names="conv2d_5/kernel:0" precision="FP16">
					<dim>256</dim>
					<dim>128</dim>
					<dim>3</dim>
					<dim>3</dim>
				</port>
			</output>
		</layer>
		<layer id="31" name="conv2d_5" type="Convolution" version="opset1">
			<data auto_pad="same_upper" dilations="1, 1" pads_begin="1, 1" pads_end="1, 1" strides="1, 1"/>
			<input>
				<port id="0" precision="FP16">
					<dim>1</dim>
					<dim>128</dim>
					<dim>26</dim>
					<dim>26</dim>
				</port>
				<port id="1" precision="FP16">
					<dim>256</dim>
					<dim>128</dim>
					<dim>3</dim>
					<dim>3</dim>
				</port>
			</input>
			<output>
				<port id="2" precision="FP16">
					<dim>1</dim>
					<dim>256</dim>
					<dim>26</dim>
					<dim>26</dim>
				</port>
			</output>
		</layer>
		<layer id="32" name="data_add_1033010335" type="Const" version="opset1">
			<data element_type="f16" offset="784708" shape="1, 256, 1, 1" size="512"/>
			<output>
				<port id="0" precision="FP16">
					<dim>1</dim>
					<dim>256</dim>
					<dim>1</dim>
					<dim>1</dim>
				</port>
			</output>
		</layer>
		<layer id="33" name="batch_normalization_5/variance/Fused_Add_" type="Add" version="opset1">
			<data auto_broadcast="numpy"/>
			<input>
				<port id="0" precision="FP16">
					<dim>1</dim>
					<dim>256</dim>
					<dim>26</dim>
					<dim>26</dim>
				</port>
				<port id="1" precision="FP16">
					<dim>1</dim>
					<dim>256</dim>
					<dim>1</dim>
					<dim>1</dim>
				</port>
			</input>
			<output>
				<port id="2" names="batch_norm_output_buffer6" precision="FP16">
					<dim>1</dim>
					<dim>256</dim>
					<dim>26</dim>
					<dim>26</dim>
				</port>
			</output>
		</layer>
		<layer id="34" name="leaky_re_lu_5/weights1494921057" type="Const" version="opset1">
			<data element_type="f32" offset="896" shape="1" size="4"/>
			<output>
				<port id="0" precision="FP32">
					<dim>1</dim>
				</port>
			</output>
		</layer>
		<layer id="35" name="leaky_re_lu_5" type="PReLU" version="opset1">
			<input>
				<port id="0" precision="FP16">
					<dim>1</dim>
					<dim>256</dim>
					<dim>26</dim>
					<dim>26</dim>
				</port>
				<port id="1" precision="FP32">
					<dim>1</dim>
				</port>
			</input>
			<output>
				<port id="2" names="model_1/leaky_re_lu_5/LeakyRelu:0" precision="FP16">
					<dim>1</dim>
					<dim>256</dim>
					<dim>26</dim>
					<dim>26</dim>
				</port>
			</output>
		</layer>
		<layer id="36" name="model_1/leaky_re_lu_5/LeakyRelu:0_pooling" type="MaxPool" version="opset1">
			<data auto_pad="same_upper" kernel="2, 2" pads_begin="0, 0" pads_end="0, 0" rounding_type="ceil" strides="2, 2"/>
			<input>
				<port id="0" precision="FP16">
					<dim>1</dim>
					<dim>256</dim>
					<dim>26</dim>
					<dim>26</dim>
				</port>
			</input>
			<output>
				<port id="1" names="model_1/leaky_re_lu_5/LeakyRelu:0_pooling0" precision="FP16">
					<dim>1</dim>
					<dim>256</dim>
					<dim>13</dim>
					<dim>13</dim>
				</port>
			</output>
		</layer>
		<layer id="37" name="batch_normalization_6/mean/Fused_Mul__copy" type="Const" version="opset1">
			<data element_type="f16" offset="785220" shape="512, 256, 3, 3" size="2359296"/>
			<output>
				<port id="0" names="conv2d_6/kernel:0" precision="FP16">
					<dim>512</dim>
					<dim>256</dim>
					<dim>3</dim>
					<dim>3</dim>
				</port>
			</output>
		</layer>
		<layer id="38" name="conv2d_6" type="Convolution" version="opset1">
			<data auto_pad="same_upper" dilations="1, 1" pads_begin="1, 1" pads_end="1, 1" strides="1, 1"/>
			<input>
				<port id="0" precision="FP16">
					<dim>1</dim>
					<dim>256</dim>
					<dim>13</dim>
					<dim>13</dim>
				</port>
				<port id="1" precision="FP16">
					<dim>512</dim>
					<dim>256</dim>
					<dim>3</dim>
					<dim>3</dim>
				</port>
			</input>
			<output>
				<port id="2" precision="FP16">
					<dim>1</dim>
					<dim>512</dim>
					<dim>13</dim>
					<dim>13</dim>
				</port>
			</output>
		</layer>
		<layer id="39" name="data_add_1033810343" type="Const" version="opset1">
			<data element_type="f16" offset="3144516" shape="1, 512, 1, 1" size="1024"/>
			<output>
				<port id="0" precision="FP16">
					<dim>1</dim>
					<dim>512</dim>
					<dim>1</dim>
					<dim>1</dim>
				</port>
			</output>
		</layer>
		<layer id="40" name="batch_normalization_6/variance/Fused_Add_" type="Add" version="opset1">
			<data auto_broadcast="numpy"/>
			<input>
				<port id="0" precision="FP16">
					<dim>1</dim>
					<dim>512</dim>
					<dim>13</dim>
					<dim>13</dim>
				</port>
				<port id="1" precision="FP16">
					<dim>1</dim>
					<dim>512</dim>
					<dim>1</dim>
					<dim>1</dim>
				</port>
			</input>
			<output>
				<port id="2" names="batch_norm_output_buffer5" precision="FP16">
					<dim>1</dim>
					<dim>512</dim>
					<dim>13</dim>
					<dim>13</dim>
				</port>
			</output>
		</layer>
		<layer id="41" name="leaky_re_lu_6/weights1496921018" type="Const" version="opset1">
			<data element_type="f32" offset="896" shape="1" size="4"/>
			<output>
				<port id="0" precision="FP32">
					<dim>1</dim>
				</port>
			</output>
		</layer>
		<layer id="42" name="leaky_re_lu_6" type="PReLU" version="opset1">
			<input>
				<port id="0" precision="FP16">
					<dim>1</dim>
					<dim>512</dim>
					<dim>13</dim>
					<dim>13</dim>
				</port>
				<port id="1" precision="FP32">
					<dim>1</dim>
				</port>
			</input>
			<output>
				<port id="2" names="model_1/leaky_re_lu_6/LeakyRelu:0" precision="FP16">
					<dim>1</dim>
					<dim>512</dim>
					<dim>13</dim>
					<dim>13</dim>
				</port>
			</output>
		</layer>
		<layer id="43" name="model_1/leaky_re_lu_6/LeakyRelu:0_pooling" type="MaxPool" version="opset1">
			<data auto_pad="same_upper" kernel="2, 2" pads_begin="0, 0" pads_end="1, 1" rounding_type="ceil" strides="1, 1"/>
			<input>
				<port id="0" precision="FP16">
					<dim>1</dim>
					<dim>512</dim>
					<dim>13</dim>
					<dim>13</dim>
				</port>
			</input>
			<output>
				<port id="1" names="model_1/leaky_re_lu_6/LeakyRelu:0_pooling0" precision="FP16">
					<dim>1</dim>
					<dim>512</dim>
					<dim>13</dim>
					<dim>13</dim>
				</port>
			</output>
		</layer>
		<layer id="44" name="batch_normalization_7/mean/Fused_Mul__copy" type="Const" version="opset1">
			<data element_type="f16" offset="3145540" shape="1024, 512, 3, 3" size="9437184"/>
			<output>
				<port id="0" names="conv2d_7/kernel:0" precision="FP16">
					<dim>1024</dim>
					<dim>512</dim>
					<dim>3</dim>
					<dim>3</dim>
				</port>
			</output>
		</layer>
		<layer id="45" name="conv2d_7" type="Convolution" version="opset1">
			<data auto_pad="same_upper" dilations="1, 1" pads_begin="1, 1" pads_end="1, 1" strides="1, 1"/>
			<input>
				<port id="0" precision="FP16">
					<dim>1</dim>
					<dim>512</dim>
					<dim>13</dim>
					<dim>13</dim>
				</port>
				<port id="1" precision="FP16">
					<dim>1024</dim>
					<dim>512</dim>
					<dim>3</dim>
					<dim>3</dim>
				</port>
			</input>
			<output>
				<port id="2" precision="FP16">
					<dim>1</dim>
					<dim>1024</dim>
					<dim>13</dim>
					<dim>13</dim>
				</port>
			</output>
		</layer>
		<layer id="46" name="data_add_1034610351" type="Const" version="opset1">
			<data element_type="f16" offset="12582724" shape="1, 1024, 1, 1" size="2048"/>
			<output>
				<port id="0" precision="FP16">
					<dim>1</dim>
					<dim>1024</dim>
					<dim>1</dim>
					<dim>1</dim>
				</port>
			</output>
		</layer>
		<layer id="47" name="batch_normalization_7/variance/Fused_Add_" type="Add" version="opset1">
			<data auto_broadcast="numpy"/>
			<input>
				<port id="0" precision="FP16">
					<dim>1</dim>
					<dim>1024</dim>
					<dim>13</dim>
					<dim>13</dim>
				</port>
				<port id="1" precision="FP16">
					<dim>1</dim>
					<dim>1024</dim>
					<dim>1</dim>
					<dim>1</dim>
				</port>
			</input>
			<output>
				<port id="2" names="batch_norm_output_buffer4" precision="FP16">
					<dim>1</dim>
					<dim>1024</dim>
					<dim>13</dim>
					<dim>13</dim>
				</port>
			</output>
		</layer>
		<layer id="48" name="leaky_re_lu_7/weights1495720889" type="Const" version="opset1">
			<data element_type="f32" offset="896" shape="1" size="4"/>
			<output>
				<port id="0" precision="FP32">
					<dim>1</dim>
				</port>
			</output>
		</layer>
		<layer id="49" name="leaky_re_lu_7" type="PReLU" version="opset1">
			<input>
				<port id="0" precision="FP16">
					<dim>1</dim>
					<dim>1024</dim>
					<dim>13</dim>
					<dim>13</dim>
				</port>
				<port id="1" precision="FP32">
					<dim>1</dim>
				</port>
			</input>
			<output>
				<port id="2" names="model_1/leaky_re_lu_7/LeakyRelu:0" precision="FP16">
					<dim>1</dim>
					<dim>1024</dim>
					<dim>13</dim>
					<dim>13</dim>
				</port>
			</output>
		</layer>
		<layer id="50" name="batch_normalization_8/mean/Fused_Mul__copy" type="Const" version="opset1">
			<data element_type="f16" offset="12584772" shape="256, 1024, 1, 1" size="524288"/>
			<output>
				<port id="0" names="conv2d_8/kernel:0" precision="FP16">
					<dim>256</dim>
					<dim>1024</dim>
					<dim>1</dim>
					<dim>1</dim>
				</port>
			</output>
		</layer>
		<layer id="51" name="conv2d_8" type="Convolution" version="opset1">
			<data auto_pad="same_upper" dilations="1, 1" pads_begin="0, 0" pads_end="0, 0" strides="1, 1"/>
			<input>
				<port id="0" precision="FP16">
					<dim>1</dim>
					<dim>1024</dim>
					<dim>13</dim>
					<dim>13</dim>
				</port>
				<port id="1" precision="FP16">
					<dim>256</dim>
					<dim>1024</dim>
					<dim>1</dim>
					<dim>1</dim>
				</port>
			</input>
			<output>
				<port id="2" precision="FP16">
					<dim>1</dim>
					<dim>256</dim>
					<dim>13</dim>
					<dim>13</dim>
				</port>
			</output>
		</layer>
		<layer id="52" name="data_add_1035410359" type="Const" version="opset1">
			<data element_type="f16" offset="13109060" shape="1, 256, 1, 1" size="512"/>
			<output>
				<port id="0" precision="FP16">
					<dim>1</dim>
					<dim>256</dim>
					<dim>1</dim>
					<dim>1</dim>
				</port>
			</output>
		</layer>
		<layer id="53" name="batch_normalization_8/variance/Fused_Add_" type="Add" version="opset1">
			<data auto_broadcast="numpy"/>
			<input>
				<port id="0" precision="FP16">
					<dim>1</dim>
					<dim>256</dim>
					<dim>13</dim>
					<dim>13</dim>
				</port>
				<port id="1" precision="FP16">
					<dim>1</dim>
					<dim>256</dim>
					<dim>1</dim>
					<dim>1</dim>
				</port>
			</input>
			<output>
				<port id="2" names="batch_norm_output_buffer3" precision="FP16">
					<dim>1</dim>
					<dim>256</dim>
					<dim>13</dim>
					<dim>13</dim>
				</port>
			</output>
		</layer>
		<layer id="54" name="leaky_re_lu_8/weights1496121093" type="Const" version="opset1">
			<data element_type="f32" offset="896" shape="1" size="4"/>
			<output>
				<port id="0" precision="FP32">
					<dim>1</dim>
				</port>
			</output>
		</layer>
		<layer id="55" name="leaky_re_lu_8" type="PReLU" version="opset1">
			<input>
				<port id="0" precision="FP16">
					<dim>1</dim>
					<dim>256</dim>
					<dim>13</dim>
					<dim>13</dim>
				</port>
				<port id="1" precision="FP32">
					<dim>1</dim>
				</port>
			</input>
			<output>
				<port id="2" names="model_1/leaky_re_lu_8/LeakyRelu:0" precision="FP16">
					<dim>1</dim>
					<dim>256</dim>
					<dim>13</dim>
					<dim>13</dim>
				</port>
			</output>
		</layer>
		<layer id="56" name="batch_normalization_9/mean/Fused_Mul__copy" type="Const" version="opset1">
			<data element_type="f16" offset="13109572" shape="512, 256, 3, 3" size="2359296"/>
			<output>
				<port id="0" names="conv2d_9/kernel:0" precision="FP16">
					<dim>512</dim>
					<dim>256</dim>
					<dim>3</dim>
					<dim>3</dim>
				</port>
			</output>
		</layer>
		<layer id="57" name="conv2d_9" type="Convolution" version="opset1">
			<data auto_pad="same_upper" dilations="1, 1" pads_begin="1, 1" pads_end="1, 1" strides="1, 1"/>
			<input>
				<port id="0" precision="FP16">
					<dim>1</dim>
					<dim>256</dim>
					<dim>13</dim>
					<dim>13</dim>
				</port>
				<port id="1" precision="FP16">
					<dim>512</dim>
					<dim>256</dim>
					<dim>3</dim>
					<dim>3</dim>
				</port>
			</input>
			<output>
				<port id="2" precision="FP16">
					<dim>1</dim>
					<dim>512</dim>
					<dim>13</dim>
					<dim>13</dim>
				</port>
			</output>
		</layer>
		<layer id="58" name="data_add_1036210367" type="Const" version="opset1">
			<data element_type="f16" offset="15468868" shape="1, 512, 1, 1" size="1024"/>
			<output>
				<port id="0" precision="FP16">
					<dim>1</dim>
					<dim>512</dim>
					<dim>1</dim>
					<dim>1</dim>
				</port>
			</output>
		</layer>
		<layer id="59" name="batch_normalization_9/variance/Fused_Add_" type="Add" version="opset1">
			<data auto_broadcast="numpy"/>
			<input>
				<port id="0" precision="FP16">
					<dim>1</dim>
					<dim>512</dim>
					<dim>13</dim>
					<dim>13</dim>
				</port>
				<port id="1" precision="FP16">
					<dim>1</dim>
					<dim>512</dim>
					<dim>1</dim>
					<dim>1</dim>
				</port>
			</input>
			<output>
				<port id="2" names="batch_norm_output_buffer1" precision="FP16">
					<dim>1</dim>
					<dim>512</dim>
					<dim>13</dim>
					<dim>13</dim>
				</port>
			</output>
		</layer>
		<layer id="60" name="leaky_re_lu_9/weights1496520739" type="Const" version="opset1">
			<data element_type="f32" offset="896" shape="1" size="4"/>
			<output>
				<port id="0" precision="FP32">
					<dim>1</dim>
				</port>
			</output>
		</layer>
		<layer id="61" name="leaky_re_lu_9" type="PReLU" version="opset1">
			<input>
				<port id="0" precision="FP16">
					<dim>1</dim>
					<dim>512</dim>
					<dim>13</dim>
					<dim>13</dim>
				</port>
				<port id="1" precision="FP32">
					<dim>1</dim>
				</port>
			</input>
			<output>
				<port id="2" names="model_1/leaky_re_lu_9/LeakyRelu:0" precision="FP16">
					<dim>1</dim>
					<dim>512</dim>
					<dim>13</dim>
					<dim>13</dim>
				</port>
			</output>
		</layer>
		<layer id="62" name="conv2d_10/kernel:0" type="Const" version="opset1">
			<data element_type="f16" offset="15469892" shape="255, 512, 1, 1" size="261120"/>
			<output>
				<port id="0" names="conv2d_10/kernel:0" precision="FP16">
					<dim>255</dim>
					<dim>512</dim>
					<dim>1</dim>
					<dim>1</dim>
				</port>
			</output>
		</layer>
		<layer id="63" name="conv2d_10/WithoutBiases" type="Convolution" version="opset1">
			<data auto_pad="same_upper" dilations="1, 1" pads_begin="0, 0" pads_end="0, 0" strides="1, 1"/>
			<input>
				<port id="0" precision="FP16">
					<dim>1</dim>
					<dim>512</dim>
					<dim>13</dim>
					<dim>13</dim>
				</port>
				<port id="1" precision="FP16">
					<dim>255</dim>
					<dim>512</dim>
					<dim>1</dim>
					<dim>1</dim>
				</port>
			</input>
			<output>
				<port id="2" precision="FP16">
					<dim>1</dim>
					<dim>255</dim>
					<dim>13</dim>
					<dim>13</dim>
				</port>
			</output>
		</layer>
		<layer id="64" name="conv2d_10/Dims5555" type="Const" version="opset1">
			<data element_type="f16" offset="15731012" shape="1, 255, 1, 1" size="510"/>
			<output>
				<port id="0" precision="FP16">
					<dim>1</dim>
					<dim>255</dim>
					<dim>1</dim>
					<dim>1</dim>
				</port>
			</output>
		</layer>
		<layer id="65" name="conv2d_10" type="Add" version="opset1">
			<data auto_broadcast="numpy"/>
			<input>
				<port id="0" precision="FP16">
					<dim>1</dim>
					<dim>255</dim>
					<dim>13</dim>
					<dim>13</dim>
				</port>
				<port id="1" precision="FP16">
					<dim>1</dim>
					<dim>255</dim>
					<dim>1</dim>
					<dim>1</dim>
				</port>
			</input>
			<output>
				<port id="2" names="convolution_output1" precision="FP16">
					<dim>1</dim>
					<dim>255</dim>
					<dim>13</dim>
					<dim>13</dim>
				</port>
			</output>
		</layer>
		<layer id="66" name="558" type="Const" version="opset1">
			<data element_type="i64" offset="15731522" shape="4" size="32"/>
			<output>
				<port id="0" precision="I64">
					<dim>4</dim>
				</port>
			</output>
		</layer>
		<layer id="67" name="Transpose4" type="Transpose" version="opset1">
			<input>
				<port id="0" precision="FP16">
					<dim>1</dim>
					<dim>255</dim>
					<dim>13</dim>
					<dim>13</dim>
				</port>
				<port id="1" precision="I64">
					<dim>4</dim>
				</port>
			</input>
			<output>
				<port id="2" names="TFNodes/model_1/conv2d_10/BiasAdd:0,transpose_output1" precision="FP16">
					<dim>1</dim>
					<dim>13</dim>
					<dim>13</dim>
					<dim>255</dim>
				</port>
			</output>
		</layer>
		<layer id="68" name="TFNodes/yolo_evaluation_layer_1/Reshape_3/shape_Unsqueeze__127/Unsqueeze" type="Const" version="opset1">
			<data element_type="i32" offset="15731554" shape="1" size="4"/>
			<output>
				<port id="0" names="TFNodes/yolo_evaluation_layer_1/Reshape_3/shape_Unsqueeze__127:0" precision="I32">
					<dim>1</dim>
				</port>
			</output>
		</layer>
		<layer id="69" name="TFNodes/yolo_evaluation_layer_1/Shape_1" type="ShapeOf" version="opset3">
			<data output_type="i64"/>
			<input>
				<port id="0" precision="FP16">
					<dim>1</dim>
					<dim>13</dim>
					<dim>13</dim>
					<dim>255</dim>
				</port>
			</input>
			<output>
				<port id="1" names="TFNodes/yolo_evaluation_layer_1/Shape_1:0" precision="I64">
					<dim>4</dim>
				</port>
			</output>
		</layer>
		<layer id="70" name="TFNodes/yolo_evaluation_layer_1/Shape_1__108" type="Convert" version="opset1">
			<data destination_type="i32"/>
			<input>
				<port id="0" precision="I64">
					<dim>4</dim>
				</port>
			</input>
			<output>
				<port id="1" names="TFNodes/yolo_evaluation_layer_1/Shape_1__108:0" precision="I32">
					<dim>4</dim>
				</port>
			</output>
		</layer>
		<layer id="71" name="TFNodes/yolo_evaluation_layer_1/strided_slice_1/Concat601120877" type="Const" version="opset1">
			<data element_type="i64" offset="15731558" shape="1" size="8"/>
			<output>
				<port id="0" precision="I64">
					<dim>1</dim>
				</port>
			</output>
		</layer>
		<layer id="72" name="TFNodes/yolo_evaluation_layer_1/strided_slice_1/Concat6001601221114" type="Const" version="opset1">
			<data element_type="i64" offset="15731566" shape="1" size="8"/>
			<output>
				<port id="0" precision="I64">
					<dim>1</dim>
				</port>
			</output>
		</layer>
		<layer id="73" name="TFNodes/yolo_evaluation_layer_1/strided_slice_1/Strides601320946" type="Const" version="opset1">
			<data element_type="i64" offset="15731558" shape="1" size="8"/>
			<output>
				<port id="0" precision="I64">
					<dim>1</dim>
				</port>
			</output>
		</layer>
		<layer id="74" name="TFNodes/yolo_evaluation_layer_1/strided_slice_1" type="StridedSlice" version="opset1">
			<data begin_mask="0" ellipsis_mask="0" end_mask="0" new_axis_mask="0" shrink_axis_mask="0"/>
			<input>
				<port id="0" precision="I32">
					<dim>4</dim>
				</port>
				<port id="1" precision="I64">
					<dim>1</dim>
				</port>
				<port id="2" precision="I64">
					<dim>1</dim>
				</port>
				<port id="3" precision="I64">
					<dim>1</dim>
				</port>
			</input>
			<output>
				<port id="4" names="TFNodes/yolo_evaluation_layer_1/strided_slice_1:0" precision="I32">
					<dim>2</dim>
				</port>
			</output>
		</layer>
		<layer id="75" name="TFNodes/yolo_evaluation_layer_1/strided_slice_6/Concat619121396" type="Const" version="opset1">
			<data element_type="i64" offset="15731574" shape="1" size="8"/>
			<output>
				<port id="0" precision="I64">
					<dim>1</dim>
				</port>
			</output>
		</layer>
		<layer id="76" name="TFNodes/yolo_evaluation_layer_1/strided_slice_6/Concat6181619221273" type="Const" version="opset1">
			<data element_type="i64" offset="15731558" shape="1" size="8"/>
			<output>
				<port id="0" precision="I64">
					<dim>1</dim>
				</port>
			</output>
		</layer>
		<layer id="77" name="TFNodes/yolo_evaluation_layer_1/strided_slice_6/Strides619321420" type="Const" version="opset1">
			<data element_type="i64" offset="15731558" shape="1" size="8"/>
			<output>
				<port id="0" precision="I64">
					<dim>1</dim>
				</port>
			</output>
		</layer>
		<layer id="78" name="TFNodes/yolo_evaluation_layer_1/strided_slice_6" type="StridedSlice" version="opset1">
			<data begin_mask="0" ellipsis_mask="0" end_mask="0" new_axis_mask="0" shrink_axis_mask="0"/>
			<input>
				<port id="0" precision="I32">
					<dim>2</dim>
				</port>
				<port id="1" precision="I64">
					<dim>1</dim>
				</port>
				<port id="2" precision="I64">
					<dim>1</dim>
				</port>
				<port id="3" precision="I64">
					<dim>1</dim>
				</port>
			</input>
			<output>
				<port id="4" names="TFNodes/yolo_evaluation_layer_1/strided_slice_6:0" precision="I32">
					<dim>1</dim>
				</port>
			</output>
		</layer>
		<layer id="79" name="TFNodes/yolo_evaluation_layer_1/strided_slice_6__126/Dims" type="Const" version="opset1">
			<data element_type="i64" offset="15731574" shape="1" size="8"/>
			<output>
				<port id="0" precision="I64">
					<dim>1</dim>
				</port>
			</output>
		</layer>
		<layer id="80" name="TFNodes/yolo_evaluation_layer_1/strided_slice_6__126" type="Squeeze" version="opset1">
			<input>
				<port id="0" precision="I32">
					<dim>1</dim>
				</port>
				<port id="1" precision="I64">
					<dim>1</dim>
				</port>
			</input>
			<output>
				<port id="2" names="TFNodes/yolo_evaluation_layer_1/strided_slice_6__126:0" precision="I32"/>
			</output>
		</layer>
		<layer id="81" name="TFNodes/yolo_evaluation_layer_1/Reshape_3/shape_Unsqueeze__128/Dims" type="Const" version="opset1">
			<data element_type="i64" offset="15731574" shape="1" size="8"/>
			<output>
				<port id="0" precision="I64">
					<dim>1</dim>
				</port>
			</output>
		</layer>
		<layer id="82" name="TFNodes/yolo_evaluation_layer_1/Reshape_3/shape_Unsqueeze__128/Unsqueeze" type="Unsqueeze" version="opset1">
			<input>
				<port id="0" precision="I32"/>
				<port id="1" precision="I64">
					<dim>1</dim>
				</port>
			</input>
			<output>
				<port id="2" names="TFNodes/yolo_evaluation_layer_1/Reshape_3/shape_Unsqueeze__128:0" precision="I32">
					<dim>1</dim>
				</port>
			</output>
		</layer>
		<layer id="83" name="TFNodes/yolo_evaluation_layer_1/strided_slice_7/Concat622720859" type="Const" version="opset1">
			<data element_type="i64" offset="15731558" shape="1" size="8"/>
			<output>
				<port id="0" precision="I64">
					<dim>1</dim>
				</port>
			</output>
		</layer>
		<layer id="84" name="TFNodes/yolo_evaluation_layer_1/strided_slice_7/Concat6217622821009" type="Const" version="opset1">
			<data element_type="i64" offset="15731582" shape="1" size="8"/>
			<output>
				<port id="0" precision="I64">
					<dim>1</dim>
				</port>
			</output>
		</layer>
		<layer id="85" name="TFNodes/yolo_evaluation_layer_1/strided_slice_7/Strides622920742" type="Const" version="opset1">
			<data element_type="i64" offset="15731558" shape="1" size="8"/>
			<output>
				<port id="0" precision="I64">
					<dim>1</dim>
				</port>
			</output>
		</layer>
		<layer id="86" name="TFNodes/yolo_evaluation_layer_1/strided_slice_7" type="StridedSlice" version="opset1">
			<data begin_mask="0" ellipsis_mask="0" end_mask="0" new_axis_mask="0" shrink_axis_mask="0"/>
			<input>
				<port id="0" precision="I32">
					<dim>2</dim>
				</port>
				<port id="1" precision="I64">
					<dim>1</dim>
				</port>
				<port id="2" precision="I64">
					<dim>1</dim>
				</port>
				<port id="3" precision="I64">
					<dim>1</dim>
				</port>
			</input>
			<output>
				<port id="4" names="TFNodes/yolo_evaluation_layer_1/strided_slice_7:0" precision="I32">
					<dim>1</dim>
				</port>
			</output>
		</layer>
		<layer id="87" name="TFNodes/yolo_evaluation_layer_1/strided_slice_7__121/Dims" type="Const" version="opset1">
			<data element_type="i64" offset="15731574" shape="1" size="8"/>
			<output>
				<port id="0" precision="I64">
					<dim>1</dim>
				</port>
			</output>
		</layer>
		<layer id="88" name="TFNodes/yolo_evaluation_layer_1/strided_slice_7__121" type="Squeeze" version="opset1">
			<input>
				<port id="0" precision="I32">
					<dim>1</dim>
				</port>
				<port id="1" precision="I64">
					<dim>1</dim>
				</port>
			</input>
			<output>
				<port id="2" names="TFNodes/yolo_evaluation_layer_1/strided_slice_7__121:0" precision="I32"/>
			</output>
		</layer>
		<layer id="89" name="TFNodes/yolo_evaluation_layer_1/Reshape_3/shape_Unsqueeze__129/Dims" type="Const" version="opset1">
			<data element_type="i64" offset="15731574" shape="1" size="8"/>
			<output>
				<port id="0" precision="I64">
					<dim>1</dim>
				</port>
			</output>
		</layer>
		<layer id="90" name="TFNodes/yolo_evaluation_layer_1/Reshape_3/shape_Unsqueeze__129/Unsqueeze" type="Unsqueeze" version="opset1">
			<input>
				<port id="0" precision="I32"/>
				<port id="1" precision="I64">
					<dim>1</dim>
				</port>
			</input>
			<output>
				<port id="2" names="TFNodes/yolo_evaluation_layer_1/Reshape_3/shape_Unsqueeze__129:0" precision="I32">
					<dim>1</dim>
				</port>
			</output>
		</layer>
		<layer id="91" name="TFNodes/yolo_evaluation_layer_1/Reshape_3/shape_Unsqueeze__130/Unsqueeze" type="Const" version="opset1">
			<data element_type="i32" offset="15731590" shape="1" size="4"/>
			<output>
				<port id="0" names="TFNodes/yolo_evaluation_layer_1/Reshape_3/shape_Unsqueeze__130:0" precision="I32">
					<dim>1</dim>
				</port>
			</output>
		</layer>
		<layer id="92" name="TFNodes/yolo_evaluation_layer_1/Reshape_3/shape_Unsqueeze__131/Unsqueeze" type="Const" version="opset1">
			<data element_type="i32" offset="15731594" shape="1" size="4"/>
			<output>
				<port id="0" names="TFNodes/yolo_evaluation_layer_1/Reshape_3/shape_Unsqueeze__131:0" precision="I32">
					<dim>1</dim>
				</port>
			</output>
		</layer>
		<layer id="93" name="TFNodes/yolo_evaluation_layer_1/Reshape_3/shape_Concat__132" type="Concat" version="opset1">
			<data axis="0"/>
			<input>
				<port id="0" precision="I32">
					<dim>1</dim>
				</port>
				<port id="1" precision="I32">
					<dim>1</dim>
				</port>
				<port id="2" precision="I32">
					<dim>1</dim>
				</port>
				<port id="3" precision="I32">
					<dim>1</dim>
				</port>
				<port id="4" precision="I32">
					<dim>1</dim>
				</port>
			</input>
			<output>
				<port id="5" names="TFNodes/yolo_evaluation_layer_1/Reshape_3/shape_Concat__132:0" precision="I32">
					<dim>5</dim>
				</port>
			</output>
		</layer>
		<layer id="94" name="TFNodes/yolo_evaluation_layer_1/Reshape_3__200" type="Convert" version="opset1">
			<data destination_type="i64"/>
			<input>
				<port id="0" precision="I32">
					<dim>5</dim>
				</port>
			</input>
			<output>
				<port id="1" names="TFNodes/yolo_evaluation_layer_1/Reshape_3__200:0" precision="I64">
					<dim>5</dim>
				</port>
			</output>
		</layer>
		<layer id="95" name="TFNodes/yolo_evaluation_layer_1/Reshape_3" type="Reshape" version="opset1">
			<data special_zero="true"/>
			<input>
				<port id="0" precision="FP16">
					<dim>1</dim>
					<dim>13</dim>
					<dim>13</dim>
					<dim>255</dim>
				</port>
				<port id="1" precision="I64">
					<dim>5</dim>
				</port>
			</input>
			<output>
				<port id="2" names="TFNodes/yolo_evaluation_layer_1/Reshape_3:0" precision="FP16">
					<dim>1</dim>
					<dim>13</dim>
					<dim>13</dim>
					<dim>3</dim>
					<dim>85</dim>
				</port>
			</output>
		</layer>
		<layer id="96" name="786621042" type="Const" version="opset1">
			<data element_type="i64" offset="15731598" shape="" size="8"/>
			<output>
				<port id="0" precision="I64"/>
			</output>
		</layer>
		<layer id="97" name="786821147" type="Const" version="opset1">
			<data element_type="i64" offset="15731606" shape="4" size="32"/>
			<output>
				<port id="0" precision="I64">
					<dim>4</dim>
				</port>
			</output>
		</layer>
		<layer id="98" name="TFNodes/yolo_evaluation_layer_1/strided_slice_8/Split" type="VariadicSplit" version="opset1">
			<input>
				<port id="0" precision="FP16">
					<dim>1</dim>
					<dim>13</dim>
					<dim>13</dim>
					<dim>3</dim>
					<dim>85</dim>
				</port>
				<port id="1" precision="I64"/>
				<port id="2" precision="I64">
					<dim>4</dim>
				</port>
			</input>
			<output>
				<port id="3" names="TFNodes/yolo_evaluation_layer_1/strided_slice_8:0" precision="FP16">
					<dim>1</dim>
					<dim>13</dim>
					<dim>13</dim>
					<dim>3</dim>
					<dim>2</dim>
				</port>
				<port id="4" names="TFNodes/yolo_evaluation_layer_1/strided_slice_10:0" precision="FP16">
					<dim>1</dim>
					<dim>13</dim>
					<dim>13</dim>
					<dim>3</dim>
					<dim>2</dim>
				</port>
				<port id="5" names="TFNodes/yolo_evaluation_layer_1/strided_slice_12:0" precision="FP16">
					<dim>1</dim>
					<dim>13</dim>
					<dim>13</dim>
					<dim>3</dim>
					<dim>1</dim>
				</port>
				<port id="6" names="TFNodes/yolo_evaluation_layer_1/strided_slice_13:0" precision="FP16">
					<dim>1</dim>
					<dim>13</dim>
					<dim>13</dim>
					<dim>3</dim>
					<dim>80</dim>
				</port>
			</output>
		</layer>
		<layer id="99" name="TFNodes/yolo_evaluation_layer_1/Sigmoid" type="Sigmoid" version="opset1">
			<input>
				<port id="0" precision="FP16">
					<dim>1</dim>
					<dim>13</dim>
					<dim>13</dim>
					<dim>3</dim>
					<dim>2</dim>
				</port>
			</input>
			<output>
				<port id="1" names="TFNodes/yolo_evaluation_layer_1/Sigmoid:0" precision="FP16">
					<dim>1</dim>
					<dim>13</dim>
					<dim>13</dim>
					<dim>3</dim>
					<dim>2</dim>
				</port>
			</output>
		</layer>
		<layer id="100" name="TFNodes/yolo_evaluation_layer_1/strided_slice_4/Concat611921246" type="Const" version="opset1">
			<data element_type="i64" offset="15731558" shape="1" size="8"/>
			<output>
				<port id="0" precision="I64">
					<dim>1</dim>
				</port>
			</output>
		</layer>
		<layer id="101" name="TFNodes/yolo_evaluation_layer_1/strided_slice_4/Concat6109612021228" type="Const" version="opset1">
			<data element_type="i64" offset="15731582" shape="1" size="8"/>
			<output>
				<port id="0" precision="I64">
					<dim>1</dim>
				</port>
			</output>
		</layer>
		<layer id="102" name="TFNodes/yolo_evaluation_layer_1/strided_slice_4/Strides612120841" type="Const" version="opset1">
			<data element_type="i64" offset="15731558" shape="1" size="8"/>
			<output>
				<port id="0" precision="I64">
					<dim>1</dim>
				</port>
			</output>
		</layer>
		<layer id="103" name="TFNodes/yolo_evaluation_layer_1/strided_slice_4" type="StridedSlice" version="opset1">
			<data begin_mask="0" ellipsis_mask="0" end_mask="0" new_axis_mask="0" shrink_axis_mask="0"/>
			<input>
				<port id="0" precision="I32">
					<dim>2</dim>
				</port>
				<port id="1" precision="I64">
					<dim>1</dim>
				</port>
				<port id="2" precision="I64">
					<dim>1</dim>
				</port>
				<port id="3" precision="I64">
					<dim>1</dim>
				</port>
			</input>
			<output>
				<port id="4" names="TFNodes/yolo_evaluation_layer_1/strided_slice_4:0" precision="I32">
					<dim>1</dim>
				</port>
			</output>
		</layer>
		<layer id="104" name="TFNodes/yolo_evaluation_layer_1/strided_slice_4__147/Dims" type="Const" version="opset1">
			<data element_type="i64" offset="15731574" shape="1" size="8"/>
			<output>
				<port id="0" precision="I64">
					<dim>1</dim>
				</port>
			</output>
		</layer>
		<layer id="105" name="TFNodes/yolo_evaluation_layer_1/strided_slice_4__147" type="Squeeze" version="opset1">
			<input>
				<port id="0" precision="I32">
					<dim>1</dim>
				</port>
				<port id="1" precision="I64">
					<dim>1</dim>
				</port>
			</input>
			<output>
				<port id="2" names="TFNodes/yolo_evaluation_layer_1/strided_slice_4__147:0" precision="I32"/>
			</output>
		</layer>
		<layer id="106" name="TFNodes/yolo_evaluation_layer_1/arange_1/start:0" type="Const" version="opset1">
			<data element_type="i32" offset="15731638" shape="" size="4"/>
			<output>
				<port id="0" names="TFNodes/yolo_evaluation_layer_1/arange_1/start:0" precision="I32"/>
			</output>
		</layer>
		<layer id="107" name="TFNodes/yolo_evaluation_layer_1/arange_1__148_diff__149" type="Subtract" version="opset1">
			<data auto_broadcast="numpy"/>
			<input>
				<port id="0" precision="I32"/>
				<port id="1" precision="I32"/>
			</input>
			<output>
				<port id="2" names="TFNodes/yolo_evaluation_layer_1/arange_1__148_diff__149:0" precision="I32"/>
			</output>
		</layer>
		<layer id="108" name="TFNodes/yolo_evaluation_layer_1/arange_1__148_cast_diff" type="Convert" version="opset1">
			<data destination_type="f16"/>
			<input>
				<port id="0" precision="I32"/>
			</input>
			<output>
				<port id="1" names="TFNodes/yolo_evaluation_layer_1/arange_1__148_cast_diff:0" precision="FP16"/>
			</output>
		</layer>
		<layer id="109" name="TFNodes/yolo_evaluation_layer_1/arange_1__148_cast_delta" type="Const" version="opset1">
			<data element_type="f16" offset="15731642" shape="" size="2"/>
			<output>
				<port id="0" names="TFNodes/yolo_evaluation_layer_1/arange_1__148_cast_delta:0" precision="FP16"/>
			</output>
		</layer>
		<layer id="110" name="TFNodes/yolo_evaluation_layer_1/arange_1__148_div" type="Divide" version="opset1">
			<data auto_broadcast="numpy" m_pythondiv="true"/>
			<input>
				<port id="0" precision="FP16"/>
				<port id="1" precision="FP16"/>
			</input>
			<output>
				<port id="2" names="TFNodes/yolo_evaluation_layer_1/arange_1__148_div:0" precision="FP16"/>
			</output>
		</layer>
		<layer id="111" name="TFNodes/yolo_evaluation_layer_1/arange_1__148_ceil" type="Ceiling" version="opset1">
			<input>
				<port id="0" precision="FP16"/>
			</input>
			<output>
				<port id="1" names="TFNodes/yolo_evaluation_layer_1/arange_1__148_ceil:0" precision="FP16"/>
			</output>
		</layer>
		<layer id="112" name="TFNodes/yolo_evaluation_layer_1/arange_1__148_trip_cnt" type="Convert" version="opset1">
			<data destination_type="i64"/>
			<input>
				<port id="0" precision="FP16"/>
			</input>
			<output>
				<port id="1" names="TFNodes/yolo_evaluation_layer_1/arange_1__148_trip_cnt:0" precision="I64"/>
			</output>
		</layer>
		<layer id="113" name="TFNodes/yolo_evaluation_layer_1/arange_1__148_cond" type="Const" version="opset1">
			<data element_type="boolean" offset="15731644" shape="" size="1"/>
			<output>
				<port id="0" names="TFNodes/yolo_evaluation_layer_1/arange_1__148_cond" precision="BOOL"/>
			</output>
		</layer>
		<layer id="114" name="TFNodes/yolo_evaluation_layer_1/arange_1/start:020979" type="Const" version="opset1">
			<data element_type="i32" offset="15731638" shape="" size="4"/>
			<output>
				<port id="0" names="TFNodes/yolo_evaluation_layer_1/arange_1/start:0" precision="I32"/>
			</output>
		</layer>
		<layer id="115" name="TFNodes/yolo_evaluation_layer_1/arange_1__148_loop" type="Loop" version="opset5">
			<port_map>
				<input external_port_id="1" internal_layer_id="1"/>
				<input external_port_id="2" internal_layer_id="0"/>
				<output axis="0" end="-1" external_port_id="3" internal_layer_id="4" part_size="1" start="0" stride="1"/>
				<output external_port_id="-1" internal_layer_id="8" purpose="execution_condition"/>
			</port_map>
			<back_edges>
				<edge from-layer="8" to-layer="1"/>
				<edge from-layer="7" to-layer="0"/>
			</back_edges>
			<input>
				<port id="0" precision="I64"/>
				<port id="1" precision="BOOL"/>
				<port id="2" precision="I32"/>
			</input>
			<output>
				<port id="3" names="TFNodes/yolo_evaluation_layer_1/arange_1__148_loop:1" precision="I32">
					<dim>13</dim>
				</port>
			</output>
			<body>
				<layers>
					<layer id="0" name="prev" type="Parameter" version="opset1">
						<data element_type="i32" shape=""/>
						<output>
							<port id="0" names="prev" precision="I32"/>
						</output>
					</layer>
					<layer id="1" name="cond" type="Parameter" version="opset1">
						<data element_type="boolean" shape=""/>
						<output>
							<port id="0" names="cond" precision="BOOL"/>
						</output>
					</layer>
					<layer id="2" name="11_input_port_1/value" type="Const" version="opset1">
						<data element_type="i64" offset="15731574" shape="1" size="8"/>
						<output>
							<port id="0" precision="I64">
								<dim>1</dim>
							</port>
						</output>
					</layer>
					<layer id="3" name="11" type="Unsqueeze" version="opset1">
						<input>
							<port id="0" precision="I32"/>
							<port id="1" precision="I64">
								<dim>1</dim>
							</port>
						</input>
						<output>
							<port id="2" precision="I32">
								<dim>1</dim>
							</port>
						</output>
					</layer>
					<layer id="4" name="Identity__155/sink_port_0" type="Result" version="opset1">
						<input>
							<port id="0" precision="I32">
								<dim>1</dim>
							</port>
						</input>
					</layer>
					<layer id="5" name="TFNodes/yolo_evaluation_layer_1/arange_1/delta:0" type="Const" version="opset1">
						<data element_type="i32" offset="15731645" shape="" size="4"/>
						<output>
							<port id="0" names="TFNodes/yolo_evaluation_layer_1/arange_1/delta:0" precision="I32"/>
						</output>
					</layer>
					<layer id="6" name="add__154" type="Add" version="opset1">
						<data auto_broadcast="numpy"/>
						<input>
							<port id="0" precision="I32"/>
							<port id="1" precision="I32"/>
						</input>
						<output>
							<port id="2" precision="I32"/>
						</output>
					</layer>
					<layer id="7" name="add__154/sink_port_0" type="Result" version="opset1">
						<input>
							<port id="0" precision="I32"/>
						</input>
					</layer>
					<layer id="8" name="Identity__153/sink_port_0" type="Result" version="opset1">
						<input>
							<port id="0" precision="BOOL"/>
						</input>
					</layer>
				</layers>
				<edges>
					<edge from-layer="0" from-port="0" to-layer="3" to-port="0"/>
					<edge from-layer="0" from-port="0" to-layer="6" to-port="0"/>
					<edge from-layer="1" from-port="0" to-layer="8" to-port="0"/>
					<edge from-layer="2" from-port="0" to-layer="3" to-port="1"/>
					<edge from-layer="3" from-port="2" to-layer="4" to-port="0"/>
					<edge from-layer="5" from-port="0" to-layer="6" to-port="1"/>
					<edge from-layer="6" from-port="2" to-layer="7" to-port="0"/>
				</edges>
			</body>
		</layer>
		<layer id="116" name="TFNodes/yolo_evaluation_layer_1/Reshape_2__156" type="Const" version="opset1">
			<data element_type="i64" offset="15731649" shape="4" size="32"/>
			<output>
				<port id="0" names="TFNodes/yolo_evaluation_layer_1/Reshape_2__156:0" precision="I64">
					<dim>4</dim>
				</port>
			</output>
		</layer>
		<layer id="117" name="TFNodes/yolo_evaluation_layer_1/Reshape_2" type="Reshape" version="opset1">
			<data special_zero="true"/>
			<input>
				<port id="0" precision="I32">
					<dim>13</dim>
				</port>
				<port id="1" precision="I64">
					<dim>4</dim>
				</port>
			</input>
			<output>
				<port id="2" names="TFNodes/yolo_evaluation_layer_1/Reshape_2:0" precision="I32">
					<dim>1</dim>
					<dim>13</dim>
					<dim>1</dim>
					<dim>1</dim>
				</port>
			</output>
		</layer>
		<layer id="118" name="TFNodes/yolo_evaluation_layer_1/strided_slice_5/Concat615521135" type="Const" version="opset1">
			<data element_type="i64" offset="15731574" shape="1" size="8"/>
			<output>
				<port id="0" precision="I64">
					<dim>1</dim>
				</port>
			</output>
		</layer>
		<layer id="119" name="TFNodes/yolo_evaluation_layer_1/strided_slice_5/Concat6145615620775" type="Const" version="opset1">
			<data element_type="i64" offset="15731558" shape="1" size="8"/>
			<output>
				<port id="0" precision="I64">
					<dim>1</dim>
				</port>
			</output>
		</layer>
		<layer id="120" name="TFNodes/yolo_evaluation_layer_1/strided_slice_5/Strides615720958" type="Const" version="opset1">
			<data element_type="i64" offset="15731558" shape="1" size="8"/>
			<output>
				<port id="0" precision="I64">
					<dim>1</dim>
				</port>
			</output>
		</layer>
		<layer id="121" name="TFNodes/yolo_evaluation_layer_1/strided_slice_5" type="StridedSlice" version="opset1">
			<data begin_mask="0" ellipsis_mask="0" end_mask="0" new_axis_mask="0" shrink_axis_mask="0"/>
			<input>
				<port id="0" precision="I32">
					<dim>2</dim>
				</port>
				<port id="1" precision="I64">
					<dim>1</dim>
				</port>
				<port id="2" precision="I64">
					<dim>1</dim>
				</port>
				<port id="3" precision="I64">
					<dim>1</dim>
				</port>
			</input>
			<output>
				<port id="4" names="TFNodes/yolo_evaluation_layer_1/strided_slice_5:0" precision="I32">
					<dim>1</dim>
				</port>
			</output>
		</layer>
		<layer id="122" name="TFNodes/yolo_evaluation_layer_1/strided_slice_5__137/Dims" type="Const" version="opset1">
			<data element_type="i64" offset="15731574" shape="1" size="8"/>
			<output>
				<port id="0" precision="I64">
					<dim>1</dim>
				</port>
			</output>
		</layer>
		<layer id="123" name="TFNodes/yolo_evaluation_layer_1/strided_slice_5__137" type="Squeeze" version="opset1">
			<input>
				<port id="0" precision="I32">
					<dim>1</dim>
				</port>
				<port id="1" precision="I64">
					<dim>1</dim>
				</port>
			</input>
			<output>
				<port id="2" names="TFNodes/yolo_evaluation_layer_1/strided_slice_5__137:0" precision="I32"/>
			</output>
		</layer>
		<layer id="124" name="TFNodes/yolo_evaluation_layer_1/Tile_1/multiples_Unsqueeze__138/Dims" type="Const" version="opset1">
			<data element_type="i64" offset="15731574" shape="1" size="8"/>
			<output>
				<port id="0" precision="I64">
					<dim>1</dim>
				</port>
			</output>
		</layer>
		<layer id="125" name="TFNodes/yolo_evaluation_layer_1/Tile_1/multiples_Unsqueeze__138/Unsqueeze" type="Unsqueeze" version="opset1">
			<input>
				<port id="0" precision="I32"/>
				<port id="1" precision="I64">
					<dim>1</dim>
				</port>
			</input>
			<output>
				<port id="2" names="TFNodes/yolo_evaluation_layer_1/Tile_1/multiples_Unsqueeze__138:0" precision="I32">
					<dim>1</dim>
				</port>
			</output>
		</layer>
		<layer id="126" name="TFNodes/yolo_evaluation_layer_1/Tile_1/multiples_Unsqueeze__139/Unsqueeze" type="Const" version="opset1">
			<data element_type="i32" offset="15731645" shape="1" size="4"/>
			<output>
				<port id="0" names="TFNodes/yolo_evaluation_layer_1/Tile_1/multiples_Unsqueeze__139:0" precision="I32">
					<dim>1</dim>
				</port>
			</output>
		</layer>
		<layer id="127" name="TFNodes/yolo_evaluation_layer_1/Tile_1/multiples_Unsqueeze__140/Unsqueeze" type="Const" version="opset1">
			<data element_type="i32" offset="15731645" shape="1" size="4"/>
			<output>
				<port id="0" names="TFNodes/yolo_evaluation_layer_1/Tile_1/multiples_Unsqueeze__140:0" precision="I32">
					<dim>1</dim>
				</port>
			</output>
		</layer>
		<layer id="128" name="TFNodes/yolo_evaluation_layer_1/Tile_1/multiples_Unsqueeze__141/Unsqueeze" type="Const" version="opset1">
			<data element_type="i32" offset="15731645" shape="1" size="4"/>
			<output>
				<port id="0" names="TFNodes/yolo_evaluation_layer_1/Tile_1/multiples_Unsqueeze__141:0" precision="I32">
					<dim>1</dim>
				</port>
			</output>
		</layer>
		<layer id="129" name="TFNodes/yolo_evaluation_layer_1/Tile_1/multiples_Concat__142" type="Concat" version="opset1">
			<data axis="0"/>
			<input>
				<port id="0" precision="I32">
					<dim>1</dim>
				</port>
				<port id="1" precision="I32">
					<dim>1</dim>
				</port>
				<port id="2" precision="I32">
					<dim>1</dim>
				</port>
				<port id="3" precision="I32">
					<dim>1</dim>
				</port>
			</input>
			<output>
				<port id="4" names="TFNodes/yolo_evaluation_layer_1/Tile_1/multiples_Concat__142:0" precision="I32">
					<dim>4</dim>
				</port>
			</output>
		</layer>
		<layer id="130" name="TFNodes/yolo_evaluation_layer_1/Tile_1__157" type="Convert" version="opset1">
			<data destination_type="i64"/>
			<input>
				<port id="0" precision="I32">
					<dim>4</dim>
				</port>
			</input>
			<output>
				<port id="1" names="TFNodes/yolo_evaluation_layer_1/Tile_1__157:0" precision="I64">
					<dim>4</dim>
				</port>
			</output>
		</layer>
		<layer id="131" name="TFNodes/yolo_evaluation_layer_1/Tile_1" type="Tile" version="opset1">
			<input>
				<port id="0" precision="I32">
					<dim>1</dim>
					<dim>13</dim>
					<dim>1</dim>
					<dim>1</dim>
				</port>
				<port id="1" precision="I64">
					<dim>4</dim>
				</port>
			</input>
			<output>
				<port id="2" names="TFNodes/yolo_evaluation_layer_1/Tile_1:0" precision="I32">
					<dim>13</dim>
					<dim>13</dim>
					<dim>1</dim>
					<dim>1</dim>
				</port>
			</output>
		</layer>
		<layer id="132" name="TFNodes/yolo_evaluation_layer_1/strided_slice_2/Concat604721411" type="Const" version="opset1">
			<data element_type="i64" offset="15731574" shape="1" size="8"/>
			<output>
				<port id="0" precision="I64">
					<dim>1</dim>
				</port>
			</output>
		</layer>
		<layer id="133" name="TFNodes/yolo_evaluation_layer_1/strided_slice_2/Concat6037604820973" type="Const" version="opset1">
			<data element_type="i64" offset="15731558" shape="1" size="8"/>
			<output>
				<port id="0" precision="I64">
					<dim>1</dim>
				</port>
			</output>
		</layer>
		<layer id="134" name="TFNodes/yolo_evaluation_layer_1/strided_slice_2/Strides604920754" type="Const" version="opset1">
			<data element_type="i64" offset="15731558" shape="1" size="8"/>
			<output>
				<port id="0" precision="I64">
					<dim>1</dim>
				</port>
			</output>
		</layer>
		<layer id="135" name="TFNodes/yolo_evaluation_layer_1/strided_slice_2" type="StridedSlice" version="opset1">
			<data begin_mask="0" ellipsis_mask="0" end_mask="0" new_axis_mask="0" shrink_axis_mask="0"/>
			<input>
				<port id="0" precision="I32">
					<dim>2</dim>
				</port>
				<port id="1" precision="I64">
					<dim>1</dim>
				</port>
				<port id="2" precision="I64">
					<dim>1</dim>
				</port>
				<port id="3" precision="I64">
					<dim>1</dim>
				</port>
			</input>
			<output>
				<port id="4" names="TFNodes/yolo_evaluation_layer_1/strided_slice_2:0" precision="I32">
					<dim>1</dim>
				</port>
			</output>
		</layer>
		<layer id="136" name="TFNodes/yolo_evaluation_layer_1/strided_slice_2__172/Dims" type="Const" version="opset1">
			<data element_type="i64" offset="15731574" shape="1" size="8"/>
			<output>
				<port id="0" precision="I64">
					<dim>1</dim>
				</port>
			</output>
		</layer>
		<layer id="137" name="TFNodes/yolo_evaluation_layer_1/strided_slice_2__172" type="Squeeze" version="opset1">
			<input>
				<port id="0" precision="I32">
					<dim>1</dim>
				</port>
				<port id="1" precision="I64">
					<dim>1</dim>
				</port>
			</input>
			<output>
				<port id="2" names="TFNodes/yolo_evaluation_layer_1/strided_slice_2__172:0" precision="I32"/>
			</output>
		</layer>
		<layer id="138" name="TFNodes/yolo_evaluation_layer_1/arange/start:0" type="Const" version="opset1">
			<data element_type="i32" offset="15731638" shape="" size="4"/>
			<output>
				<port id="0" names="TFNodes/yolo_evaluation_layer_1/arange/start:0" precision="I32"/>
			</output>
		</layer>
		<layer id="139" name="TFNodes/yolo_evaluation_layer_1/arange__173_diff__174" type="Subtract" version="opset1">
			<data auto_broadcast="numpy"/>
			<input>
				<port id="0" precision="I32"/>
				<port id="1" precision="I32"/>
			</input>
			<output>
				<port id="2" names="TFNodes/yolo_evaluation_layer_1/arange__173_diff__174:0" precision="I32"/>
			</output>
		</layer>
		<layer id="140" name="TFNodes/yolo_evaluation_layer_1/arange__173_cast_diff" type="Convert" version="opset1">
			<data destination_type="f16"/>
			<input>
				<port id="0" precision="I32"/>
			</input>
			<output>
				<port id="1" names="TFNodes/yolo_evaluation_layer_1/arange__173_cast_diff:0" precision="FP16"/>
			</output>
		</layer>
		<layer id="141" name="TFNodes/yolo_evaluation_layer_1/arange__173_cast_delta" type="Const" version="opset1">
			<data element_type="f16" offset="15731642" shape="" size="2"/>
			<output>
				<port id="0" names="TFNodes/yolo_evaluation_layer_1/arange__173_cast_delta:0" precision="FP16"/>
			</output>
		</layer>
		<layer id="142" name="TFNodes/yolo_evaluation_layer_1/arange__173_div" type="Divide" version="opset1">
			<data auto_broadcast="numpy" m_pythondiv="true"/>
			<input>
				<port id="0" precision="FP16"/>
				<port id="1" precision="FP16"/>
			</input>
			<output>
				<port id="2" names="TFNodes/yolo_evaluation_layer_1/arange__173_div:0" precision="FP16"/>
			</output>
		</layer>
		<layer id="143" name="TFNodes/yolo_evaluation_layer_1/arange__173_ceil" type="Ceiling" version="opset1">
			<input>
				<port id="0" precision="FP16"/>
			</input>
			<output>
				<port id="1" names="TFNodes/yolo_evaluation_layer_1/arange__173_ceil:0" precision="FP16"/>
			</output>
		</layer>
		<layer id="144" name="TFNodes/yolo_evaluation_layer_1/arange__173_trip_cnt" type="Convert" version="opset1">
			<data destination_type="i64"/>
			<input>
				<port id="0" precision="FP16"/>
			</input>
			<output>
				<port id="1" names="TFNodes/yolo_evaluation_layer_1/arange__173_trip_cnt:0" precision="I64"/>
			</output>
		</layer>
		<layer id="145" name="TFNodes/yolo_evaluation_layer_1/arange__173_cond" type="Const" version="opset1">
			<data element_type="boolean" offset="15731644" shape="" size="1"/>
			<output>
				<port id="0" names="TFNodes/yolo_evaluation_layer_1/arange__173_cond" precision="BOOL"/>
			</output>
		</layer>
		<layer id="146" name="TFNodes/yolo_evaluation_layer_1/arange/start:020967" type="Const" version="opset1">
			<data element_type="i32" offset="15731638" shape="" size="4"/>
			<output>
				<port id="0" names="TFNodes/yolo_evaluation_layer_1/arange/start:0" precision="I32"/>
			</output>
		</layer>
		<layer id="147" name="TFNodes/yolo_evaluation_layer_1/arange__173_loop" type="Loop" version="opset5">
			<port_map>
				<input external_port_id="1" internal_layer_id="1"/>
				<input external_port_id="2" internal_layer_id="0"/>
				<output axis="0" end="-1" external_port_id="3" internal_layer_id="4" part_size="1" start="0" stride="1"/>
				<output external_port_id="-1" internal_layer_id="8" purpose="execution_condition"/>
			</port_map>
			<back_edges>
				<edge from-layer="8" to-layer="1"/>
				<edge from-layer="7" to-layer="0"/>
			</back_edges>
			<input>
				<port id="0" precision="I64"/>
				<port id="1" precision="BOOL"/>
				<port id="2" precision="I32"/>
			</input>
			<output>
				<port id="3" names="TFNodes/yolo_evaluation_layer_1/arange__173_loop:1" precision="I32">
					<dim>13</dim>
				</port>
			</output>
			<body>
				<layers>
					<layer id="0" name="prev" type="Parameter" version="opset1">
						<data element_type="i32" shape=""/>
						<output>
							<port id="0" names="prev" precision="I32"/>
						</output>
					</layer>
					<layer id="1" name="cond" type="Parameter" version="opset1">
						<data element_type="boolean" shape=""/>
						<output>
							<port id="0" names="cond" precision="BOOL"/>
						</output>
					</layer>
					<layer id="2" name="11_input_port_1/value" type="Const" version="opset1">
						<data element_type="i64" offset="15731574" shape="1" size="8"/>
						<output>
							<port id="0" precision="I64">
								<dim>1</dim>
							</port>
						</output>
					</layer>
					<layer id="3" name="11" type="Unsqueeze" version="opset1">
						<input>
							<port id="0" precision="I32"/>
							<port id="1" precision="I64">
								<dim>1</dim>
							</port>
						</input>
						<output>
							<port id="2" precision="I32">
								<dim>1</dim>
							</port>
						</output>
					</layer>
					<layer id="4" name="Identity__180/sink_port_0" type="Result" version="opset1">
						<input>
							<port id="0" precision="I32">
								<dim>1</dim>
							</port>
						</input>
					</layer>
					<layer id="5" name="TFNodes/yolo_evaluation_layer_1/arange/delta:0" type="Const" version="opset1">
						<data element_type="i32" offset="15731645" shape="" size="4"/>
						<output>
							<port id="0" names="TFNodes/yolo_evaluation_layer_1/arange/delta:0" precision="I32"/>
						</output>
					</layer>
					<layer id="6" name="add__179" type="Add" version="opset1">
						<data auto_broadcast="numpy"/>
						<input>
							<port id="0" precision="I32"/>
							<port id="1" precision="I32"/>
						</input>
						<output>
							<port id="2" precision="I32"/>
						</output>
					</layer>
					<layer id="7" name="add__179/sink_port_0" type="Result" version="opset1">
						<input>
							<port id="0" precision="I32"/>
						</input>
					</layer>
					<layer id="8" name="Identity__178/sink_port_0" type="Result" version="opset1">
						<input>
							<port id="0" precision="BOOL"/>
						</input>
					</layer>
				</layers>
				<edges>
					<edge from-layer="0" from-port="0" to-layer="3" to-port="0"/>
					<edge from-layer="0" from-port="0" to-layer="6" to-port="0"/>
					<edge from-layer="1" from-port="0" to-layer="8" to-port="0"/>
					<edge from-layer="2" from-port="0" to-layer="3" to-port="1"/>
					<edge from-layer="3" from-port="2" to-layer="4" to-port="0"/>
					<edge from-layer="5" from-port="0" to-layer="6" to-port="1"/>
					<edge from-layer="6" from-port="2" to-layer="7" to-port="0"/>
				</edges>
			</body>
		</layer>
		<layer id="148" name="TFNodes/yolo_evaluation_layer_1/Reshape_1__181" type="Const" version="opset1">
			<data element_type="i64" offset="15731681" shape="4" size="32"/>
			<output>
				<port id="0" names="TFNodes/yolo_evaluation_layer_1/Reshape_1__181:0" precision="I64">
					<dim>4</dim>
				</port>
			</output>
		</layer>
		<layer id="149" name="TFNodes/yolo_evaluation_layer_1/Reshape_1" type="Reshape" version="opset1">
			<data special_zero="true"/>
			<input>
				<port id="0" precision="I32">
					<dim>13</dim>
				</port>
				<port id="1" precision="I64">
					<dim>4</dim>
				</port>
			</input>
			<output>
				<port id="2" names="TFNodes/yolo_evaluation_layer_1/Reshape_1:0" precision="I32">
					<dim>13</dim>
					<dim>1</dim>
					<dim>1</dim>
					<dim>1</dim>
				</port>
			</output>
		</layer>
		<layer id="150" name="TFNodes/yolo_evaluation_layer_1/Tile/multiples_Unsqueeze__163/Unsqueeze" type="Const" version="opset1">
			<data element_type="i32" offset="15731645" shape="1" size="4"/>
			<output>
				<port id="0" names="TFNodes/yolo_evaluation_layer_1/Tile/multiples_Unsqueeze__163:0" precision="I32">
					<dim>1</dim>
				</port>
			</output>
		</layer>
		<layer id="151" name="TFNodes/yolo_evaluation_layer_1/strided_slice_3/Concat608320763" type="Const" version="opset1">
			<data element_type="i64" offset="15731558" shape="1" size="8"/>
			<output>
				<port id="0" precision="I64">
					<dim>1</dim>
				</port>
			</output>
		</layer>
		<layer id="152" name="TFNodes/yolo_evaluation_layer_1/strided_slice_3/Concat6073608421030" type="Const" version="opset1">
			<data element_type="i64" offset="15731582" shape="1" size="8"/>
			<output>
				<port id="0" precision="I64">
					<dim>1</dim>
				</port>
			</output>
		</layer>
		<layer id="153" name="TFNodes/yolo_evaluation_layer_1/strided_slice_3/Strides608521429" type="Const" version="opset1">
			<data element_type="i64" offset="15731558" shape="1" size="8"/>
			<output>
				<port id="0" precision="I64">
					<dim>1</dim>
				</port>
			</output>
		</layer>
		<layer id="154" name="TFNodes/yolo_evaluation_layer_1/strided_slice_3" type="StridedSlice" version="opset1">
			<data begin_mask="0" ellipsis_mask="0" end_mask="0" new_axis_mask="0" shrink_axis_mask="0"/>
			<input>
				<port id="0" precision="I32">
					<dim>2</dim>
				</port>
				<port id="1" precision="I64">
					<dim>1</dim>
				</port>
				<port id="2" precision="I64">
					<dim>1</dim>
				</port>
				<port id="3" precision="I64">
					<dim>1</dim>
				</port>
			</input>
			<output>
				<port id="4" names="TFNodes/yolo_evaluation_layer_1/strided_slice_3:0" precision="I32">
					<dim>1</dim>
				</port>
			</output>
		</layer>
		<layer id="155" name="TFNodes/yolo_evaluation_layer_1/strided_slice_3__162/Dims" type="Const" version="opset1">
			<data element_type="i64" offset="15731574" shape="1" size="8"/>
			<output>
				<port id="0" precision="I64">
					<dim>1</dim>
				</port>
			</output>
		</layer>
		<layer id="156" name="TFNodes/yolo_evaluation_layer_1/strided_slice_3__162" type="Squeeze" version="opset1">
			<input>
				<port id="0" precision="I32">
					<dim>1</dim>
				</port>
				<port id="1" precision="I64">
					<dim>1</dim>
				</port>
			</input>
			<output>
				<port id="2" names="TFNodes/yolo_evaluation_layer_1/strided_slice_3__162:0" precision="I32"/>
			</output>
		</layer>
		<layer id="157" name="TFNodes/yolo_evaluation_layer_1/Tile/multiples_Unsqueeze__164/Dims" type="Const" version="opset1">
			<data element_type="i64" offset="15731574" shape="1" size="8"/>
			<output>
				<port id="0" precision="I64">
					<dim>1</dim>
				</port>
			</output>
		</layer>
		<layer id="158" name="TFNodes/yolo_evaluation_layer_1/Tile/multiples_Unsqueeze__164/Unsqueeze" type="Unsqueeze" version="opset1">
			<input>
				<port id="0" precision="I32"/>
				<port id="1" precision="I64">
					<dim>1</dim>
				</port>
			</input>
			<output>
				<port id="2" names="TFNodes/yolo_evaluation_layer_1/Tile/multiples_Unsqueeze__164:0" precision="I32">
					<dim>1</dim>
				</port>
			</output>
		</layer>
		<layer id="159" name="TFNodes/yolo_evaluation_layer_1/Tile/multiples_Unsqueeze__165/Unsqueeze" type="Const" version="opset1">
			<data element_type="i32" offset="15731645" shape="1" size="4"/>
			<output>
				<port id="0" names="TFNodes/yolo_evaluation_layer_1/Tile/multiples_Unsqueeze__165:0" precision="I32">
					<dim>1</dim>
				</port>
			</output>
		</layer>
		<layer id="160" name="TFNodes/yolo_evaluation_layer_1/Tile/multiples_Unsqueeze__166/Unsqueeze" type="Const" version="opset1">
			<data element_type="i32" offset="15731645" shape="1" size="4"/>
			<output>
				<port id="0" names="TFNodes/yolo_evaluation_layer_1/Tile/multiples_Unsqueeze__166:0" precision="I32">
					<dim>1</dim>
				</port>
			</output>
		</layer>
		<layer id="161" name="TFNodes/yolo_evaluation_layer_1/Tile/multiples_Concat__167" type="Concat" version="opset1">
			<data axis="0"/>
			<input>
				<port id="0" precision="I32">
					<dim>1</dim>
				</port>
				<port id="1" precision="I32">
					<dim>1</dim>
				</port>
				<port id="2" precision="I32">
					<dim>1</dim>
				</port>
				<port id="3" precision="I32">
					<dim>1</dim>
				</port>
			</input>
			<output>
				<port id="4" names="TFNodes/yolo_evaluation_layer_1/Tile/multiples_Concat__167:0" precision="I32">
					<dim>4</dim>
				</port>
			</output>
		</layer>
		<layer id="162" name="TFNodes/yolo_evaluation_layer_1/Tile__182" type="Convert" version="opset1">
			<data destination_type="i64"/>
			<input>
				<port id="0" precision="I32">
					<dim>4</dim>
				</port>
			</input>
			<output>
				<port id="1" names="TFNodes/yolo_evaluation_layer_1/Tile__182:0" precision="I64">
					<dim>4</dim>
				</port>
			</output>
		</layer>
		<layer id="163" name="TFNodes/yolo_evaluation_layer_1/Tile" type="Tile" version="opset1">
			<input>
				<port id="0" precision="I32">
					<dim>13</dim>
					<dim>1</dim>
					<dim>1</dim>
					<dim>1</dim>
				</port>
				<port id="1" precision="I64">
					<dim>4</dim>
				</port>
			</input>
			<output>
				<port id="2" names="TFNodes/yolo_evaluation_layer_1/Tile:0" precision="I32">
					<dim>13</dim>
					<dim>13</dim>
					<dim>1</dim>
					<dim>1</dim>
				</port>
			</output>
		</layer>
		<layer id="164" name="TFNodes/yolo_evaluation_layer_1/concat" type="Concat" version="opset1">
			<data axis="3"/>
			<input>
				<port id="0" precision="I32">
					<dim>13</dim>
					<dim>13</dim>
					<dim>1</dim>
					<dim>1</dim>
				</port>
				<port id="1" precision="I32">
					<dim>13</dim>
					<dim>13</dim>
					<dim>1</dim>
					<dim>1</dim>
				</port>
			</input>
			<output>
				<port id="2" names="TFNodes/yolo_evaluation_layer_1/concat:0" precision="I32">
					<dim>13</dim>
					<dim>13</dim>
					<dim>1</dim>
					<dim>2</dim>
				</port>
			</output>
		</layer>
		<layer id="165" name="TFNodes/yolo_evaluation_layer_1/Cast" type="Convert" version="opset1">
			<data destination_type="f16"/>
			<input>
				<port id="0" precision="I32">
					<dim>13</dim>
					<dim>13</dim>
					<dim>1</dim>
					<dim>2</dim>
				</port>
			</input>
			<output>
				<port id="1" precision="FP16">
					<dim>13</dim>
					<dim>13</dim>
					<dim>1</dim>
					<dim>2</dim>
				</port>
			</output>
		</layer>
		<layer id="166" name="TFNodes/yolo_evaluation_layer_1/Cast/EltwiseUnsqueeze_input_port_1/value1064920748" type="Const" version="opset1">
			<data element_type="i64" offset="15731574" shape="1" size="8"/>
			<output>
				<port id="0" precision="I64">
					<dim>1</dim>
				</port>
			</output>
		</layer>
		<layer id="167" name="TFNodes/yolo_evaluation_layer_1/Cast/EltwiseUnsqueeze" type="Unsqueeze" version="opset1">
			<input>
				<port id="0" precision="FP16">
					<dim>13</dim>
					<dim>13</dim>
					<dim>1</dim>
					<dim>2</dim>
				</port>
				<port id="1" precision="I64">
					<dim>1</dim>
				</port>
			</input>
			<output>
				<port id="2" names="TFNodes/yolo_evaluation_layer_1/Cast:0" precision="FP16">
					<dim>1</dim>
					<dim>13</dim>
					<dim>13</dim>
					<dim>1</dim>
					<dim>2</dim>
				</port>
			</output>
		</layer>
		<layer id="168" name="TFNodes/yolo_evaluation_layer_1/add" type="Add" version="opset1">
			<data auto_broadcast="numpy"/>
			<input>
				<port id="0" precision="FP16">
					<dim>1</dim>
					<dim>13</dim>
					<dim>13</dim>
					<dim>3</dim>
					<dim>2</dim>
				</port>
				<port id="1" precision="FP16">
					<dim>1</dim>
					<dim>13</dim>
					<dim>13</dim>
					<dim>1</dim>
					<dim>2</dim>
				</port>
			</input>
			<output>
				<port id="2" names="TFNodes/yolo_evaluation_layer_1/add:0" precision="FP16">
					<dim>1</dim>
					<dim>13</dim>
					<dim>13</dim>
					<dim>3</dim>
					<dim>2</dim>
				</port>
			</output>
		</layer>
		<layer id="169" name="TFNodes/yolo_evaluation_layer_1/strided_slice_9/Concat652321243" type="Const" version="opset1">
			<data element_type="i64" offset="15731713" shape="1" size="8"/>
			<output>
				<port id="0" precision="I64">
					<dim>1</dim>
				</port>
			</output>
		</layer>
		<layer id="170" name="TFNodes/yolo_evaluation_layer_1/strided_slice_9/Concat6513652421408" type="Const" version="opset1">
			<data element_type="i64" offset="15731721" shape="1" size="8"/>
			<output>
				<port id="0" precision="I64">
					<dim>1</dim>
				</port>
			</output>
		</layer>
		<layer id="171" name="TFNodes/yolo_evaluation_layer_1/strided_slice_9/Strides652520991" type="Const" version="opset1">
			<data element_type="i64" offset="15731713" shape="1" size="8"/>
			<output>
				<port id="0" precision="I64">
					<dim>1</dim>
				</port>
			</output>
		</layer>
		<layer id="172" name="TFNodes/yolo_evaluation_layer_1/strided_slice_9" type="StridedSlice" version="opset1">
			<data begin_mask="0" ellipsis_mask="0" end_mask="0" new_axis_mask="0" shrink_axis_mask="0"/>
			<input>
				<port id="0" precision="I32">
					<dim>2</dim>
				</port>
				<port id="1" precision="I64">
					<dim>1</dim>
				</port>
				<port id="2" precision="I64">
					<dim>1</dim>
				</port>
				<port id="3" precision="I64">
					<dim>1</dim>
				</port>
			</input>
			<output>
				<port id="4" names="TFNodes/yolo_evaluation_layer_1/strided_slice_9:0" precision="I32">
					<dim>2</dim>
				</port>
			</output>
		</layer>
		<layer id="173" name="TFNodes/yolo_evaluation_layer_1/Cast_1" type="Convert" version="opset1">
			<data destination_type="f16"/>
			<input>
				<port id="0" precision="I32">
					<dim>2</dim>
				</port>
			</input>
			<output>
				<port id="1" precision="FP16">
					<dim>2</dim>
				</port>
			</output>
		</layer>
		<layer id="174" name="TFNodes/yolo_evaluation_layer_1/truediv/reciprocal__input_port_1/value9735" type="Const" version="opset1">
			<data element_type="f16" offset="15731729" shape="1" size="2"/>
			<output>
				<port id="0" precision="FP16">
					<dim>1</dim>
				</port>
			</output>
		</layer>
		<layer id="175" name="TFNodes/yolo_evaluation_layer_1/truediv/reciprocal_" type="Power" version="opset1">
			<data auto_broadcast="numpy"/>
			<input>
				<port id="0" precision="FP16">
					<dim>2</dim>
				</port>
				<port id="1" precision="FP16">
					<dim>1</dim>
				</port>
			</input>
			<output>
				<port id="2" precision="FP16">
					<dim>2</dim>
				</port>
			</output>
		</layer>
		<layer id="176" name="TFNodes/yolo_evaluation_layer_1/truediv/reciprocal_/EltwiseUnsqueeze_input_port_1/value1070520799" type="Const" version="opset1">
			<data element_type="i64" offset="15731731" shape="4" size="32"/>
			<output>
				<port id="0" precision="I64">
					<dim>4</dim>
				</port>
			</output>
		</layer>
		<layer id="177" name="TFNodes/yolo_evaluation_layer_1/truediv/reciprocal_/EltwiseUnsqueeze" type="Unsqueeze" version="opset1">
			<input>
				<port id="0" precision="FP16">
					<dim>2</dim>
				</port>
				<port id="1" precision="I64">
					<dim>4</dim>
				</port>
			</input>
			<output>
				<port id="2" names="TFNodes/yolo_evaluation_layer_1/Cast_1:0" precision="FP16">
					<dim>1</dim>
					<dim>1</dim>
					<dim>1</dim>
					<dim>1</dim>
					<dim>2</dim>
				</port>
			</output>
		</layer>
		<layer id="178" name="TFNodes/yolo_evaluation_layer_1/truediv" type="Multiply" version="opset1">
			<data auto_broadcast="numpy"/>
			<input>
				<port id="0" precision="FP16">
					<dim>1</dim>
					<dim>13</dim>
					<dim>13</dim>
					<dim>3</dim>
					<dim>2</dim>
				</port>
				<port id="1" precision="FP16">
					<dim>1</dim>
					<dim>1</dim>
					<dim>1</dim>
					<dim>1</dim>
					<dim>2</dim>
				</port>
			</input>
			<output>
				<port id="2" names="TFNodes/yolo_evaluation_layer_1/truediv:0" precision="FP16">
					<dim>1</dim>
					<dim>13</dim>
					<dim>13</dim>
					<dim>3</dim>
					<dim>2</dim>
				</port>
			</output>
		</layer>
		<layer id="179" name="TFNodes/yolo_evaluation_layer_1/strided_slice_14/Concat657521096" type="Const" version="opset1">
			<data element_type="i64" offset="15731763" shape="5" size="40"/>
			<output>
				<port id="0" precision="I64">
					<dim>5</dim>
				</port>
			</output>
		</layer>
		<layer id="180" name="TFNodes/yolo_evaluation_layer_1/strided_slice_14/Concat6557657621363" type="Const" version="opset1">
			<data element_type="i64" offset="15731803" shape="5" size="40"/>
			<output>
				<port id="0" precision="I64">
					<dim>5</dim>
				</port>
			</output>
		</layer>
		<layer id="181" name="TFNodes/yolo_evaluation_layer_1/strided_slice_14/Strides657721354" type="Const" version="opset1">
			<data element_type="i64" offset="15731843" shape="5" size="40"/>
			<output>
				<port id="0" precision="I64">
					<dim>5</dim>
				</port>
			</output>
		</layer>
		<layer id="182" name="TFNodes/yolo_evaluation_layer_1/strided_slice_14" type="StridedSlice" version="opset1">
			<data begin_mask="1, 1, 1, 1, 0" ellipsis_mask="0, 0, 0, 0, 0" end_mask="1, 1, 1, 1, 0" new_axis_mask="0, 0, 0, 0, 0" shrink_axis_mask="0, 0, 0, 0, 0"/>
			<input>
				<port id="0" precision="FP16">
					<dim>1</dim>
					<dim>13</dim>
					<dim>13</dim>
					<dim>3</dim>
					<dim>2</dim>
				</port>
				<port id="1" precision="I64">
					<dim>5</dim>
				</port>
				<port id="2" precision="I64">
					<dim>5</dim>
				</port>
				<port id="3" precision="I64">
					<dim>5</dim>
				</port>
			</input>
			<output>
				<port id="4" names="TFNodes/yolo_evaluation_layer_1/strided_slice_14:0" precision="FP16">
					<dim>1</dim>
					<dim>13</dim>
					<dim>13</dim>
					<dim>3</dim>
					<dim>2</dim>
				</port>
			</output>
		</layer>
		<layer id="183" name="TFNodes/yolo_evaluation_layer_1/Squeeze/Dims" type="Const" version="opset1">
			<data element_type="i64" offset="15731574" shape="1" size="8"/>
			<output>
				<port id="0" precision="I64">
					<dim>1</dim>
				</port>
			</output>
		</layer>
		<layer id="184" name="TFNodes/yolo_evaluation_layer_1/Squeeze" type="Squeeze" version="opset1">
			<input>
				<port id="0" precision="FP16">
					<dim>1</dim>
					<dim>2</dim>
				</port>
				<port id="1" precision="I64">
					<dim>1</dim>
				</port>
			</input>
			<output>
				<port id="2" precision="FP16">
					<dim>2</dim>
				</port>
			</output>
		</layer>
		<layer id="185" name="TFNodes/yolo_evaluation_layer_1/Shape" type="ShapeOf" version="opset3">
			<data output_type="i64"/>
			<input>
				<port id="0" precision="FP16">
					<dim>1</dim>
					<dim>13</dim>
					<dim>13</dim>
					<dim>255</dim>
				</port>
			</input>
			<output>
				<port id="1" names="TFNodes/yolo_evaluation_layer_1/Shape:0" precision="I64">
					<dim>4</dim>
				</port>
			</output>
		</layer>
		<layer id="186" name="TFNodes/yolo_evaluation_layer_1/Shape__183" type="Convert" version="opset1">
			<data destination_type="i32"/>
			<input>
				<port id="0" precision="I64">
					<dim>4</dim>
				</port>
			</input>
			<output>
				<port id="1" names="TFNodes/yolo_evaluation_layer_1/Shape__183:0" precision="I32">
					<dim>4</dim>
				</port>
			</output>
		</layer>
		<layer id="187" name="TFNodes/yolo_evaluation_layer_1/strided_slice/Concat590321312" type="Const" version="opset1">
			<data element_type="i64" offset="15731558" shape="1" size="8"/>
			<output>
				<port id="0" precision="I64">
					<dim>1</dim>
				</port>
			</output>
		</layer>
		<layer id="188" name="TFNodes/yolo_evaluation_layer_1/strided_slice/Concat5893590421105" type="Const" version="opset1">
			<data element_type="i64" offset="15731566" shape="1" size="8"/>
			<output>
				<port id="0" precision="I64">
					<dim>1</dim>
				</port>
			</output>
		</layer>
		<layer id="189" name="TFNodes/yolo_evaluation_layer_1/strided_slice/Strides590520808" type="Const" version="opset1">
			<data element_type="i64" offset="15731558" shape="1" size="8"/>
			<output>
				<port id="0" precision="I64">
					<dim>1</dim>
				</port>
			</output>
		</layer>
		<layer id="190" name="TFNodes/yolo_evaluation_layer_1/strided_slice" type="StridedSlice" version="opset1">
			<data begin_mask="0" ellipsis_mask="0" end_mask="0" new_axis_mask="0" shrink_axis_mask="0"/>
			<input>
				<port id="0" precision="I32">
					<dim>4</dim>
				</port>
				<port id="1" precision="I64">
					<dim>1</dim>
				</port>
				<port id="2" precision="I64">
					<dim>1</dim>
				</port>
				<port id="3" precision="I64">
					<dim>1</dim>
				</port>
			</input>
			<output>
				<port id="4" names="TFNodes/yolo_evaluation_layer_1/strided_slice:0" precision="I32">
					<dim>2</dim>
				</port>
			</output>
		</layer>
		<layer id="191" name="TFNodes/yolo_evaluation_layer_1/mul/y:0" type="Const" version="opset1">
			<data element_type="i32" offset="15731883" shape="1" size="4"/>
			<output>
				<port id="0" names="TFNodes/yolo_evaluation_layer_1/mul/y:0" precision="I32">
					<dim>1</dim>
				</port>
			</output>
		</layer>
		<layer id="192" name="TFNodes/yolo_evaluation_layer_1/mul" type="Multiply" version="opset1">
			<data auto_broadcast="numpy"/>
			<input>
				<port id="0" precision="I32">
					<dim>2</dim>
				</port>
				<port id="1" precision="I32">
					<dim>1</dim>
				</port>
			</input>
			<output>
				<port id="2" names="TFNodes/yolo_evaluation_layer_1/mul:0" precision="I32">
					<dim>2</dim>
				</port>
			</output>
		</layer>
		<layer id="193" name="TFNodes/yolo_evaluation_layer_1/Cast_3" type="Convert" version="opset1">
			<data destination_type="f16"/>
			<input>
				<port id="0" precision="I32">
					<dim>2</dim>
				</port>
			</input>
			<output>
				<port id="1" precision="FP16">
					<dim>2</dim>
				</port>
			</output>
		</layer>
		<layer id="194" name="TFNodes/yolo_evaluation_layer_1/truediv_2/reciprocal__input_port_1/value9669" type="Const" version="opset1">
			<data element_type="f16" offset="15731729" shape="1" size="2"/>
			<output>
				<port id="0" precision="FP16">
					<dim>1</dim>
				</port>
			</output>
		</layer>
		<layer id="195" name="TFNodes/yolo_evaluation_layer_1/truediv_2/reciprocal_" type="Power" version="opset1">
			<data auto_broadcast="numpy"/>
			<input>
				<port id="0" precision="FP16">
					<dim>2</dim>
				</port>
				<port id="1" precision="FP16">
					<dim>1</dim>
				</port>
			</input>
			<output>
				<port id="2" names="TFNodes/yolo_evaluation_layer_1/Squeeze:0" precision="FP16">
					<dim>2</dim>
				</port>
			</output>
		</layer>
		<layer id="196" name="TFNodes/yolo_evaluation_layer_1/truediv_2" type="Multiply" version="opset1">
			<data auto_broadcast="numpy"/>
			<input>
				<port id="0" precision="FP16">
					<dim>2</dim>
				</port>
				<port id="1" precision="FP16">
					<dim>2</dim>
				</port>
			</input>
			<output>
				<port id="2" names="TFNodes/yolo_evaluation_layer_1/truediv_2:0" precision="FP16">
					<dim>2</dim>
				</port>
			</output>
		</layer>
		<layer id="197" name="TFNodes/yolo_evaluation_layer_1/Min/axis" type="Const" version="opset1">
			<data element_type="i64" offset="15731574" shape="1" size="8"/>
			<output>
				<port id="0" precision="I64">
					<dim>1</dim>
				</port>
			</output>
		</layer>
		<layer id="198" name="TFNodes/yolo_evaluation_layer_1/Min" type="ReduceMin" version="opset1">
			<data keep_dims="false"/>
			<input>
				<port id="0" precision="FP16">
					<dim>2</dim>
				</port>
				<port id="1" precision="I64">
					<dim>1</dim>
				</port>
			</input>
			<output>
				<port id="2" precision="FP16"/>
			</output>
		</layer>
		<layer id="199" name="TFNodes/yolo_evaluation_layer_1/Min/EltwiseUnsqueeze_input_port_1/value1063720796" type="Const" version="opset1">
			<data element_type="i64" offset="15731574" shape="1" size="8"/>
			<output>
				<port id="0" precision="I64">
					<dim>1</dim>
				</port>
			</output>
		</layer>
		<layer id="200" name="TFNodes/yolo_evaluation_layer_1/Min/EltwiseUnsqueeze" type="Unsqueeze" version="opset1">
			<input>
				<port id="0" precision="FP16"/>
				<port id="1" precision="I64">
					<dim>1</dim>
				</port>
			</input>
			<output>
				<port id="2" names="TFNodes/yolo_evaluation_layer_1/Min:0" precision="FP16">
					<dim>1</dim>
				</port>
			</output>
		</layer>
		<layer id="201" name="TFNodes/yolo_evaluation_layer_1/mul_2" type="Multiply" version="opset1">
			<data auto_broadcast="numpy"/>
			<input>
				<port id="0" precision="FP16">
					<dim>2</dim>
				</port>
				<port id="1" precision="FP16">
					<dim>1</dim>
				</port>
			</input>
			<output>
				<port id="2" names="TFNodes/yolo_evaluation_layer_1/mul_2:0" precision="FP16">
					<dim>2</dim>
				</port>
			</output>
		</layer>
		<layer id="202" name="TFNodes/yolo_evaluation_layer_1/Round" type="Round" version="opset5">
			<data mode="half_to_even"/>
			<input>
				<port id="0" precision="FP16">
					<dim>2</dim>
				</port>
			</input>
			<output>
				<port id="1" precision="FP16">
					<dim>2</dim>
				</port>
			</output>
		</layer>
		<layer id="203" name="data_mul_103771038121177" type="Const" version="opset1">
			<data element_type="f16" offset="15731887" shape="2" size="4"/>
			<output>
				<port id="0" precision="FP16">
					<dim>2</dim>
				</port>
			</output>
		</layer>
		<layer id="204" name="TFNodes/yolo_evaluation_layer_1/sub/neg_/Fused_Mul_" type="Multiply" version="opset1">
			<data auto_broadcast="numpy"/>
			<input>
				<port id="0" precision="FP16">
					<dim>2</dim>
				</port>
				<port id="1" precision="FP16">
					<dim>2</dim>
				</port>
			</input>
			<output>
				<port id="2" precision="FP16">
					<dim>2</dim>
				</port>
			</output>
		</layer>
		<layer id="205" name="data_add_103781038321090" type="Const" version="opset1">
			<data element_type="f16" offset="15731891" shape="2" size="4"/>
			<output>
				<port id="0" precision="FP16">
					<dim>2</dim>
				</port>
			</output>
		</layer>
		<layer id="206" name="TFNodes/yolo_evaluation_layer_1/sub/Fused_Add_" type="Add" version="opset1">
			<data auto_broadcast="numpy"/>
			<input>
				<port id="0" precision="FP16">
					<dim>2</dim>
				</port>
				<port id="1" precision="FP16">
					<dim>2</dim>
				</port>
			</input>
			<output>
				<port id="2" precision="FP16">
					<dim>2</dim>
				</port>
			</output>
		</layer>
		<layer id="207" name="TFNodes/yolo_evaluation_layer_1/sub/Fused_Add_/EltwiseUnsqueeze_input_port_1/value1073320955" type="Const" version="opset1">
			<data element_type="i64" offset="15731731" shape="4" size="32"/>
			<output>
				<port id="0" precision="I64">
					<dim>4</dim>
				</port>
			</output>
		</layer>
		<layer id="208" name="TFNodes/yolo_evaluation_layer_1/sub/Fused_Add_/EltwiseUnsqueeze" type="Unsqueeze" version="opset1">
			<input>
				<port id="0" precision="FP16">
					<dim>2</dim>
				</port>
				<port id="1" precision="I64">
					<dim>4</dim>
				</port>
			</input>
			<output>
				<port id="2" names="TFNodes/yolo_evaluation_layer_1/truediv_4:0" precision="FP16">
					<dim>1</dim>
					<dim>1</dim>
					<dim>1</dim>
					<dim>1</dim>
					<dim>2</dim>
				</port>
			</output>
		</layer>
		<layer id="209" name="TFNodes/yolo_evaluation_layer_1/sub_1" type="Add" version="opset1">
			<data auto_broadcast="numpy"/>
			<input>
				<port id="0" precision="FP16">
					<dim>1</dim>
					<dim>13</dim>
					<dim>13</dim>
					<dim>3</dim>
					<dim>2</dim>
				</port>
				<port id="1" precision="FP16">
					<dim>1</dim>
					<dim>1</dim>
					<dim>1</dim>
					<dim>1</dim>
					<dim>2</dim>
				</port>
			</input>
			<output>
				<port id="2" names="TFNodes/yolo_evaluation_layer_1/sub_1:0" precision="FP16">
					<dim>1</dim>
					<dim>13</dim>
					<dim>13</dim>
					<dim>3</dim>
					<dim>2</dim>
				</port>
			</output>
		</layer>
		<layer id="210" name="TFNodes/yolo_evaluation_layer_1/truediv_5/reciprocal__input_port_1/value9687" type="Const" version="opset1">
			<data element_type="f16" offset="15731729" shape="1" size="2"/>
			<output>
				<port id="0" precision="FP16">
					<dim>1</dim>
				</port>
			</output>
		</layer>
		<layer id="211" name="TFNodes/yolo_evaluation_layer_1/truediv_5/reciprocal_" type="Power" version="opset1">
			<data auto_broadcast="numpy"/>
			<input>
				<port id="0" precision="FP16">
					<dim>2</dim>
				</port>
				<port id="1" precision="FP16">
					<dim>1</dim>
				</port>
			</input>
			<output>
				<port id="2" names="TFNodes/yolo_evaluation_layer_1/Round:0" precision="FP16">
					<dim>2</dim>
				</port>
			</output>
		</layer>
		<layer id="212" name="TFNodes/yolo_evaluation_layer_1/truediv_5" type="Multiply" version="opset1">
			<data auto_broadcast="numpy"/>
			<input>
				<port id="0" precision="FP16">
					<dim>2</dim>
				</port>
				<port id="1" precision="FP16">
					<dim>2</dim>
				</port>
			</input>
			<output>
				<port id="2" precision="FP16">
					<dim>2</dim>
				</port>
			</output>
		</layer>
		<layer id="213" name="TFNodes/yolo_evaluation_layer_1/truediv_5/EltwiseUnsqueeze_input_port_1/value1064521351" type="Const" version="opset1">
			<data element_type="i64" offset="15731731" shape="4" size="32"/>
			<output>
				<port id="0" precision="I64">
					<dim>4</dim>
				</port>
			</output>
		</layer>
		<layer id="214" name="TFNodes/yolo_evaluation_layer_1/truediv_5/EltwiseUnsqueeze" type="Unsqueeze" version="opset1">
			<input>
				<port id="0" precision="FP16">
					<dim>2</dim>
				</port>
				<port id="1" precision="I64">
					<dim>4</dim>
				</port>
			</input>
			<output>
				<port id="2" names="TFNodes/yolo_evaluation_layer_1/truediv_5:0" precision="FP16">
					<dim>1</dim>
					<dim>1</dim>
					<dim>1</dim>
					<dim>1</dim>
					<dim>2</dim>
				</port>
			</output>
		</layer>
		<layer id="215" name="TFNodes/yolo_evaluation_layer_1/mul_3" type="Multiply" version="opset1">
			<data auto_broadcast="numpy"/>
			<input>
				<port id="0" precision="FP16">
					<dim>1</dim>
					<dim>13</dim>
					<dim>13</dim>
					<dim>3</dim>
					<dim>2</dim>
				</port>
				<port id="1" precision="FP16">
					<dim>1</dim>
					<dim>1</dim>
					<dim>1</dim>
					<dim>1</dim>
					<dim>2</dim>
				</port>
			</input>
			<output>
				<port id="2" names="TFNodes/yolo_evaluation_layer_1/mul_3:0" precision="FP16">
					<dim>1</dim>
					<dim>13</dim>
					<dim>13</dim>
					<dim>3</dim>
					<dim>2</dim>
				</port>
			</output>
		</layer>
		<layer id="216" name="TFNodes/yolo_evaluation_layer_1/Exp" type="Exp" version="opset1">
			<input>
				<port id="0" precision="FP16">
					<dim>1</dim>
					<dim>13</dim>
					<dim>13</dim>
					<dim>3</dim>
					<dim>2</dim>
				</port>
			</input>
			<output>
				<port id="1" names="TFNodes/yolo_evaluation_layer_1/Exp:0" precision="FP16">
					<dim>1</dim>
					<dim>13</dim>
					<dim>13</dim>
					<dim>3</dim>
					<dim>2</dim>
				</port>
			</output>
		</layer>
		<layer id="217" name="TFNodes/yolo_evaluation_layer_1/Reshape" type="Const" version="opset1">
			<data element_type="f16" offset="15731895" shape="1, 1, 1, 3, 2" size="12"/>
			<output>
				<port id="0" names="TFNodes/yolo_evaluation_layer_1/Reshape:0" precision="FP16">
					<dim>1</dim>
					<dim>1</dim>
					<dim>1</dim>
					<dim>3</dim>
					<dim>2</dim>
				</port>
			</output>
		</layer>
		<layer id="218" name="TFNodes/yolo_evaluation_layer_1/mul_1" type="Multiply" version="opset1">
			<data auto_broadcast="numpy"/>
			<input>
				<port id="0" precision="FP16">
					<dim>1</dim>
					<dim>13</dim>
					<dim>13</dim>
					<dim>3</dim>
					<dim>2</dim>
				</port>
				<port id="1" precision="FP16">
					<dim>1</dim>
					<dim>1</dim>
					<dim>1</dim>
					<dim>3</dim>
					<dim>2</dim>
				</port>
			</input>
			<output>
				<port id="2" names="TFNodes/yolo_evaluation_layer_1/mul_1:0" precision="FP16">
					<dim>1</dim>
					<dim>13</dim>
					<dim>13</dim>
					<dim>3</dim>
					<dim>2</dim>
				</port>
			</output>
		</layer>
		<layer id="219" name="TFNodes/yolo_evaluation_layer_1/strided_slice_11/Concat593921162" type="Const" version="opset1">
			<data element_type="i64" offset="15731713" shape="1" size="8"/>
			<output>
				<port id="0" precision="I64">
					<dim>1</dim>
				</port>
			</output>
		</layer>
		<layer id="220" name="TFNodes/yolo_evaluation_layer_1/strided_slice_11/Concat5929594021084" type="Const" version="opset1">
			<data element_type="i64" offset="15731721" shape="1" size="8"/>
			<output>
				<port id="0" precision="I64">
					<dim>1</dim>
				</port>
			</output>
		</layer>
		<layer id="221" name="TFNodes/yolo_evaluation_layer_1/strided_slice_11/Strides594121423" type="Const" version="opset1">
			<data element_type="i64" offset="15731713" shape="1" size="8"/>
			<output>
				<port id="0" precision="I64">
					<dim>1</dim>
				</port>
			</output>
		</layer>
		<layer id="222" name="TFNodes/yolo_evaluation_layer_1/strided_slice_11" type="StridedSlice" version="opset1">
			<data begin_mask="0" ellipsis_mask="0" end_mask="0" new_axis_mask="0" shrink_axis_mask="0"/>
			<input>
				<port id="0" precision="I32">
					<dim>2</dim>
				</port>
				<port id="1" precision="I64">
					<dim>1</dim>
				</port>
				<port id="2" precision="I64">
					<dim>1</dim>
				</port>
				<port id="3" precision="I64">
					<dim>1</dim>
				</port>
			</input>
			<output>
				<port id="4" names="TFNodes/yolo_evaluation_layer_1/strided_slice_11:0" precision="I32">
					<dim>2</dim>
				</port>
			</output>
		</layer>
		<layer id="223" name="TFNodes/yolo_evaluation_layer_1/Cast_2" type="Convert" version="opset1">
			<data destination_type="f16"/>
			<input>
				<port id="0" precision="I32">
					<dim>2</dim>
				</port>
			</input>
			<output>
				<port id="1" precision="FP16">
					<dim>2</dim>
				</port>
			</output>
		</layer>
		<layer id="224" name="TFNodes/yolo_evaluation_layer_1/truediv_1/reciprocal__input_port_1/value9717" type="Const" version="opset1">
			<data element_type="f16" offset="15731729" shape="1" size="2"/>
			<output>
				<port id="0" precision="FP16">
					<dim>1</dim>
				</port>
			</output>
		</layer>
		<layer id="225" name="TFNodes/yolo_evaluation_layer_1/truediv_1/reciprocal_" type="Power" version="opset1">
			<data auto_broadcast="numpy"/>
			<input>
				<port id="0" precision="FP16">
					<dim>2</dim>
				</port>
				<port id="1" precision="FP16">
					<dim>1</dim>
				</port>
			</input>
			<output>
				<port id="2" precision="FP16">
					<dim>2</dim>
				</port>
			</output>
		</layer>
		<layer id="226" name="TFNodes/yolo_evaluation_layer_1/truediv_1/reciprocal_/EltwiseUnsqueeze_input_port_1/value1069320769" type="Const" version="opset1">
			<data element_type="i64" offset="15731731" shape="4" size="32"/>
			<output>
				<port id="0" precision="I64">
					<dim>4</dim>
				</port>
			</output>
		</layer>
		<layer id="227" name="TFNodes/yolo_evaluation_layer_1/truediv_1/reciprocal_/EltwiseUnsqueeze" type="Unsqueeze" version="opset1">
			<input>
				<port id="0" precision="FP16">
					<dim>2</dim>
				</port>
				<port id="1" precision="I64">
					<dim>4</dim>
				</port>
			</input>
			<output>
				<port id="2" names="TFNodes/yolo_evaluation_layer_1/Cast_2:0" precision="FP16">
					<dim>1</dim>
					<dim>1</dim>
					<dim>1</dim>
					<dim>1</dim>
					<dim>2</dim>
				</port>
			</output>
		</layer>
		<layer id="228" name="TFNodes/yolo_evaluation_layer_1/truediv_1" type="Multiply" version="opset1">
			<data auto_broadcast="numpy"/>
			<input>
				<port id="0" precision="FP16">
					<dim>1</dim>
					<dim>13</dim>
					<dim>13</dim>
					<dim>3</dim>
					<dim>2</dim>
				</port>
				<port id="1" precision="FP16">
					<dim>1</dim>
					<dim>1</dim>
					<dim>1</dim>
					<dim>1</dim>
					<dim>2</dim>
				</port>
			</input>
			<output>
				<port id="2" names="TFNodes/yolo_evaluation_layer_1/truediv_1:0" precision="FP16">
					<dim>1</dim>
					<dim>13</dim>
					<dim>13</dim>
					<dim>3</dim>
					<dim>2</dim>
				</port>
			</output>
		</layer>
		<layer id="229" name="TFNodes/yolo_evaluation_layer_1/strided_slice_15/Concat633120856" type="Const" version="opset1">
			<data element_type="i64" offset="15731763" shape="5" size="40"/>
			<output>
				<port id="0" precision="I64">
					<dim>5</dim>
				</port>
			</output>
		</layer>
		<layer id="230" name="TFNodes/yolo_evaluation_layer_1/strided_slice_15/Concat6313633221111" type="Const" version="opset1">
			<data element_type="i64" offset="15731803" shape="5" size="40"/>
			<output>
				<port id="0" precision="I64">
					<dim>5</dim>
				</port>
			</output>
		</layer>
		<layer id="231" name="TFNodes/yolo_evaluation_layer_1/strided_slice_15/Strides633321426" type="Const" version="opset1">
			<data element_type="i64" offset="15731843" shape="5" size="40"/>
			<output>
				<port id="0" precision="I64">
					<dim>5</dim>
				</port>
			</output>
		</layer>
		<layer id="232" name="TFNodes/yolo_evaluation_layer_1/strided_slice_15" type="StridedSlice" version="opset1">
			<data begin_mask="1, 1, 1, 1, 0" ellipsis_mask="0, 0, 0, 0, 0" end_mask="1, 1, 1, 1, 0" new_axis_mask="0, 0, 0, 0, 0" shrink_axis_mask="0, 0, 0, 0, 0"/>
			<input>
				<port id="0" precision="FP16">
					<dim>1</dim>
					<dim>13</dim>
					<dim>13</dim>
					<dim>3</dim>
					<dim>2</dim>
				</port>
				<port id="1" precision="I64">
					<dim>5</dim>
				</port>
				<port id="2" precision="I64">
					<dim>5</dim>
				</port>
				<port id="3" precision="I64">
					<dim>5</dim>
				</port>
			</input>
			<output>
				<port id="4" names="TFNodes/yolo_evaluation_layer_1/strided_slice_15:0" precision="FP16">
					<dim>1</dim>
					<dim>13</dim>
					<dim>13</dim>
					<dim>3</dim>
					<dim>2</dim>
				</port>
			</output>
		</layer>
		<layer id="233" name="TFNodes/yolo_evaluation_layer_1/mul_4" type="Multiply" version="opset1">
			<data auto_broadcast="numpy"/>
			<input>
				<port id="0" precision="FP16">
					<dim>1</dim>
					<dim>13</dim>
					<dim>13</dim>
					<dim>3</dim>
					<dim>2</dim>
				</port>
				<port id="1" precision="FP16">
					<dim>1</dim>
					<dim>1</dim>
					<dim>1</dim>
					<dim>1</dim>
					<dim>2</dim>
				</port>
			</input>
			<output>
				<port id="2" names="TFNodes/yolo_evaluation_layer_1/mul_4:0" precision="FP16">
					<dim>1</dim>
					<dim>13</dim>
					<dim>13</dim>
					<dim>3</dim>
					<dim>2</dim>
				</port>
			</output>
		</layer>
		<layer id="234" name="data_mul_1038510387" type="Const" version="opset1">
			<data element_type="f16" offset="15731907" shape="1, 1, 1, 1, 1" size="2"/>
			<output>
				<port id="0" precision="FP16">
					<dim>1</dim>
					<dim>1</dim>
					<dim>1</dim>
					<dim>1</dim>
					<dim>1</dim>
				</port>
			</output>
		</layer>
		<layer id="235" name="TFNodes/yolo_evaluation_layer_1/truediv_6/Fused_Mul_" type="Multiply" version="opset1">
			<data auto_broadcast="numpy"/>
			<input>
				<port id="0" precision="FP16">
					<dim>1</dim>
					<dim>13</dim>
					<dim>13</dim>
					<dim>3</dim>
					<dim>2</dim>
				</port>
				<port id="1" precision="FP16">
					<dim>1</dim>
					<dim>1</dim>
					<dim>1</dim>
					<dim>1</dim>
					<dim>1</dim>
				</port>
			</input>
			<output>
				<port id="2" names="TFNodes/yolo_evaluation_layer_1/truediv_6:0" precision="FP16">
					<dim>1</dim>
					<dim>13</dim>
					<dim>13</dim>
					<dim>3</dim>
					<dim>2</dim>
				</port>
			</output>
		</layer>
		<layer id="236" name="TFNodes/yolo_evaluation_layer_1/sub_2" type="Add" version="opset1">
			<data auto_broadcast="numpy"/>
			<input>
				<port id="0" precision="FP16">
					<dim>1</dim>
					<dim>13</dim>
					<dim>13</dim>
					<dim>3</dim>
					<dim>2</dim>
				</port>
				<port id="1" precision="FP16">
					<dim>1</dim>
					<dim>13</dim>
					<dim>13</dim>
					<dim>3</dim>
					<dim>2</dim>
				</port>
			</input>
			<output>
				<port id="2" names="TFNodes/yolo_evaluation_layer_1/sub_2:0" precision="FP16">
					<dim>1</dim>
					<dim>13</dim>
					<dim>13</dim>
					<dim>3</dim>
					<dim>2</dim>
				</port>
			</output>
		</layer>
		<layer id="237" name="787621141" type="Const" version="opset1">
			<data element_type="i64" offset="15731598" shape="" size="8"/>
			<output>
				<port id="0" precision="I64"/>
			</output>
		</layer>
		<layer id="238" name="787820937" type="Const" version="opset1">
			<data element_type="i64" offset="15731909" shape="2" size="16"/>
			<output>
				<port id="0" precision="I64">
					<dim>2</dim>
				</port>
			</output>
		</layer>
		<layer id="239" name="TFNodes/yolo_evaluation_layer_1/strided_slice_16/Split" type="VariadicSplit" version="opset1">
			<input>
				<port id="0" precision="FP16">
					<dim>1</dim>
					<dim>13</dim>
					<dim>13</dim>
					<dim>3</dim>
					<dim>2</dim>
				</port>
				<port id="1" precision="I64"/>
				<port id="2" precision="I64">
					<dim>2</dim>
				</port>
			</input>
			<output>
				<port id="3" names="TFNodes/yolo_evaluation_layer_1/strided_slice_16:0" precision="FP16">
					<dim>1</dim>
					<dim>13</dim>
					<dim>13</dim>
					<dim>3</dim>
					<dim>1</dim>
				</port>
				<port id="4" names="TFNodes/yolo_evaluation_layer_1/strided_slice_17:0" precision="FP16">
					<dim>1</dim>
					<dim>13</dim>
					<dim>13</dim>
					<dim>3</dim>
					<dim>1</dim>
				</port>
			</output>
		</layer>
		<layer id="240" name="TFNodes/yolo_evaluation_layer_1/truediv_7/y:0" type="Const" version="opset1">
			<data element_type="f16" offset="15731925" shape="1, 1, 1, 1, 1" size="2"/>
			<output>
				<port id="0" names="TFNodes/yolo_evaluation_layer_1/truediv_7/y:0" precision="FP16">
					<dim>1</dim>
					<dim>1</dim>
					<dim>1</dim>
					<dim>1</dim>
					<dim>1</dim>
				</port>
			</output>
		</layer>
		<layer id="241" name="TFNodes/yolo_evaluation_layer_1/truediv_7" type="Multiply" version="opset1">
			<data auto_broadcast="numpy"/>
			<input>
				<port id="0" precision="FP16">
					<dim>1</dim>
					<dim>13</dim>
					<dim>13</dim>
					<dim>3</dim>
					<dim>2</dim>
				</port>
				<port id="1" precision="FP16">
					<dim>1</dim>
					<dim>1</dim>
					<dim>1</dim>
					<dim>1</dim>
					<dim>1</dim>
				</port>
			</input>
			<output>
				<port id="2" names="TFNodes/yolo_evaluation_layer_1/truediv_7:0" precision="FP16">
					<dim>1</dim>
					<dim>13</dim>
					<dim>13</dim>
					<dim>3</dim>
					<dim>2</dim>
				</port>
			</output>
		</layer>
		<layer id="242" name="TFNodes/yolo_evaluation_layer_1/add_1" type="Add" version="opset1">
			<data auto_broadcast="numpy"/>
			<input>
				<port id="0" precision="FP16">
					<dim>1</dim>
					<dim>13</dim>
					<dim>13</dim>
					<dim>3</dim>
					<dim>2</dim>
				</port>
				<port id="1" precision="FP16">
					<dim>1</dim>
					<dim>13</dim>
					<dim>13</dim>
					<dim>3</dim>
					<dim>2</dim>
				</port>
			</input>
			<output>
				<port id="2" names="TFNodes/yolo_evaluation_layer_1/add_1:0" precision="FP16">
					<dim>1</dim>
					<dim>13</dim>
					<dim>13</dim>
					<dim>3</dim>
					<dim>2</dim>
				</port>
			</output>
		</layer>
		<layer id="243" name="787121318" type="Const" version="opset1">
			<data element_type="i64" offset="15731598" shape="" size="8"/>
			<output>
				<port id="0" precision="I64"/>
			</output>
		</layer>
		<layer id="244" name="787321024" type="Const" version="opset1">
			<data element_type="i64" offset="15731909" shape="2" size="16"/>
			<output>
				<port id="0" precision="I64">
					<dim>2</dim>
				</port>
			</output>
		</layer>
		<layer id="245" name="TFNodes/yolo_evaluation_layer_1/strided_slice_18/Split" type="VariadicSplit" version="opset1">
			<input>
				<port id="0" precision="FP16">
					<dim>1</dim>
					<dim>13</dim>
					<dim>13</dim>
					<dim>3</dim>
					<dim>2</dim>
				</port>
				<port id="1" precision="I64"/>
				<port id="2" precision="I64">
					<dim>2</dim>
				</port>
			</input>
			<output>
				<port id="3" names="TFNodes/yolo_evaluation_layer_1/strided_slice_18:0" precision="FP16">
					<dim>1</dim>
					<dim>13</dim>
					<dim>13</dim>
					<dim>3</dim>
					<dim>1</dim>
				</port>
				<port id="4" names="TFNodes/yolo_evaluation_layer_1/strided_slice_19:0" precision="FP16">
					<dim>1</dim>
					<dim>13</dim>
					<dim>13</dim>
					<dim>3</dim>
					<dim>1</dim>
				</port>
			</output>
		</layer>
		<layer id="246" name="TFNodes/yolo_evaluation_layer_1/concat_1" type="Concat" version="opset1">
			<data axis="4"/>
			<input>
				<port id="0" precision="FP16">
					<dim>1</dim>
					<dim>13</dim>
					<dim>13</dim>
					<dim>3</dim>
					<dim>1</dim>
				</port>
				<port id="1" precision="FP16">
					<dim>1</dim>
					<dim>13</dim>
					<dim>13</dim>
					<dim>3</dim>
					<dim>1</dim>
				</port>
				<port id="2" precision="FP16">
					<dim>1</dim>
					<dim>13</dim>
					<dim>13</dim>
					<dim>3</dim>
					<dim>1</dim>
				</port>
				<port id="3" precision="FP16">
					<dim>1</dim>
					<dim>13</dim>
					<dim>13</dim>
					<dim>3</dim>
					<dim>1</dim>
				</port>
			</input>
			<output>
				<port id="4" names="TFNodes/yolo_evaluation_layer_1/concat_1:0" precision="FP16">
					<dim>1</dim>
					<dim>13</dim>
					<dim>13</dim>
					<dim>3</dim>
					<dim>4</dim>
				</port>
			</output>
		</layer>
		<layer id="247" name="TFNodes/yolo_evaluation_layer_1/concat_2" type="Concat" version="opset1">
			<data axis="0"/>
			<input>
				<port id="0" precision="FP16">
					<dim>2</dim>
				</port>
				<port id="1" precision="FP16">
					<dim>2</dim>
				</port>
			</input>
			<output>
				<port id="2" precision="FP16">
					<dim>4</dim>
				</port>
			</output>
		</layer>
		<layer id="248" name="TFNodes/yolo_evaluation_layer_1/concat_2/EltwiseUnsqueeze_input_port_1/value1065321144" type="Const" version="opset1">
			<data element_type="i64" offset="15731731" shape="4" size="32"/>
			<output>
				<port id="0" precision="I64">
					<dim>4</dim>
				</port>
			</output>
		</layer>
		<layer id="249" name="TFNodes/yolo_evaluation_layer_1/concat_2/EltwiseUnsqueeze" type="Unsqueeze" version="opset1">
			<input>
				<port id="0" precision="FP16">
					<dim>4</dim>
				</port>
				<port id="1" precision="I64">
					<dim>4</dim>
				</port>
			</input>
			<output>
				<port id="2" names="TFNodes/yolo_evaluation_layer_1/concat_2:0" precision="FP16">
					<dim>1</dim>
					<dim>1</dim>
					<dim>1</dim>
					<dim>1</dim>
					<dim>4</dim>
				</port>
			</output>
		</layer>
		<layer id="250" name="TFNodes/yolo_evaluation_layer_1/mul_5" type="Multiply" version="opset1">
			<data auto_broadcast="numpy"/>
			<input>
				<port id="0" precision="FP16">
					<dim>1</dim>
					<dim>13</dim>
					<dim>13</dim>
					<dim>3</dim>
					<dim>4</dim>
				</port>
				<port id="1" precision="FP16">
					<dim>1</dim>
					<dim>1</dim>
					<dim>1</dim>
					<dim>1</dim>
					<dim>4</dim>
				</port>
			</input>
			<output>
				<port id="2" names="TFNodes/yolo_evaluation_layer_1/mul_5:0" precision="FP16">
					<dim>1</dim>
					<dim>13</dim>
					<dim>13</dim>
					<dim>3</dim>
					<dim>4</dim>
				</port>
			</output>
		</layer>
		<layer id="251" name="TFNodes/yolo_evaluation_layer_1/Reshape_4__259" type="Const" version="opset1">
			<data element_type="i64" offset="15731927" shape="2" size="16"/>
			<output>
				<port id="0" names="TFNodes/yolo_evaluation_layer_1/Reshape_4__259:0" precision="I64">
					<dim>2</dim>
				</port>
			</output>
		</layer>
		<layer id="252" name="TFNodes/yolo_evaluation_layer_1/Reshape_4" type="Reshape" version="opset1">
			<data special_zero="true"/>
			<input>
				<port id="0" precision="FP16">
					<dim>1</dim>
					<dim>13</dim>
					<dim>13</dim>
					<dim>3</dim>
					<dim>4</dim>
				</port>
				<port id="1" precision="I64">
					<dim>2</dim>
				</port>
			</input>
			<output>
				<port id="2" names="TFNodes/yolo_evaluation_layer_1/Reshape_4:0" precision="FP16">
					<dim>507</dim>
					<dim>4</dim>
				</port>
			</output>
		</layer>
		<layer id="253" name="batch_normalization_10/mean/Fused_Mul__copy" type="Const" version="opset1">
			<data element_type="f16" offset="15731943" shape="128, 256, 1, 1" size="65536"/>
			<output>
				<port id="0" names="conv2d_11/kernel:0" precision="FP16">
					<dim>128</dim>
					<dim>256</dim>
					<dim>1</dim>
					<dim>1</dim>
				</port>
			</output>
		</layer>
		<layer id="254" name="conv2d_11" type="Convolution" version="opset1">
			<data auto_pad="same_upper" dilations="1, 1" pads_begin="0, 0" pads_end="0, 0" strides="1, 1"/>
			<input>
				<port id="0" precision="FP16">
					<dim>1</dim>
					<dim>256</dim>
					<dim>13</dim>
					<dim>13</dim>
				</port>
				<port id="1" precision="FP16">
					<dim>128</dim>
					<dim>256</dim>
					<dim>1</dim>
					<dim>1</dim>
				</port>
			</input>
			<output>
				<port id="2" precision="FP16">
					<dim>1</dim>
					<dim>128</dim>
					<dim>13</dim>
					<dim>13</dim>
				</port>
			</output>
		</layer>
		<layer id="255" name="data_add_1039010395" type="Const" version="opset1">
			<data element_type="f16" offset="15797479" shape="1, 128, 1, 1" size="256"/>
			<output>
				<port id="0" precision="FP16">
					<dim>1</dim>
					<dim>128</dim>
					<dim>1</dim>
					<dim>1</dim>
				</port>
			</output>
		</layer>
		<layer id="256" name="batch_normalization_10/variance/Fused_Add_" type="Add" version="opset1">
			<data auto_broadcast="numpy"/>
			<input>
				<port id="0" precision="FP16">
					<dim>1</dim>
					<dim>128</dim>
					<dim>13</dim>
					<dim>13</dim>
				</port>
				<port id="1" precision="FP16">
					<dim>1</dim>
					<dim>128</dim>
					<dim>1</dim>
					<dim>1</dim>
				</port>
			</input>
			<output>
				<port id="2" names="batch_norm_output_buffer2" precision="FP16">
					<dim>1</dim>
					<dim>128</dim>
					<dim>13</dim>
					<dim>13</dim>
				</port>
			</output>
		</layer>
		<layer id="257" name="leaky_re_lu_10/weights1492921171" type="Const" version="opset1">
			<data element_type="f32" offset="896" shape="1" size="4"/>
			<output>
				<port id="0" precision="FP32">
					<dim>1</dim>
				</port>
			</output>
		</layer>
		<layer id="258" name="leaky_re_lu_10" type="PReLU" version="opset1">
			<input>
				<port id="0" precision="FP16">
					<dim>1</dim>
					<dim>128</dim>
					<dim>13</dim>
					<dim>13</dim>
				</port>
				<port id="1" precision="FP32">
					<dim>1</dim>
				</port>
			</input>
			<output>
				<port id="2" names="model_1/leaky_re_lu_10/LeakyRelu:0" precision="FP16">
					<dim>1</dim>
					<dim>128</dim>
					<dim>13</dim>
					<dim>13</dim>
				</port>
			</output>
		</layer>
		<layer id="259" name="Resize/ShapeOf" type="ShapeOf" version="opset3">
			<data output_type="i64"/>
			<input>
				<port id="0" precision="FP16">
					<dim>1</dim>
					<dim>128</dim>
					<dim>13</dim>
					<dim>13</dim>
				</port>
			</input>
			<output>
				<port id="1" precision="I64">
					<dim>4</dim>
				</port>
			</output>
		</layer>
		<layer id="260" name="4610" type="Convert" version="opset1">
			<data destination_type="f32"/>
			<input>
				<port id="0" precision="I64">
					<dim>4</dim>
				</port>
			</input>
			<output>
				<port id="1" precision="FP32">
					<dim>4</dim>
				</port>
			</output>
		</layer>
		<layer id="261" name="Resize_scales" type="Const" version="opset1">
			<data element_type="f32" offset="15797735" shape="4" size="16"/>
			<output>
				<port id="0" names="Resize_scales" precision="FP32">
					<dim>4</dim>
				</port>
			</output>
		</layer>
		<layer id="262" name="Resize/Mul" type="Multiply" version="opset1">
			<data auto_broadcast="numpy"/>
			<input>
				<port id="0" precision="FP32">
					<dim>4</dim>
				</port>
				<port id="1" precision="FP32">
					<dim>4</dim>
				</port>
			</input>
			<output>
				<port id="2" precision="FP32">
					<dim>4</dim>
				</port>
			</output>
		</layer>
		<layer id="263" name="Resize/Add_input_port_1/value460921150" type="Const" version="opset1">
			<data element_type="f32" offset="15797751" shape="1" size="4"/>
			<output>
				<port id="0" precision="FP32">
					<dim>1</dim>
				</port>
			</output>
		</layer>
		<layer id="264" name="Resize/Add" type="Add" version="opset1">
			<data auto_broadcast="numpy"/>
			<input>
				<port id="0" precision="FP32">
					<dim>4</dim>
				</port>
				<port id="1" precision="FP32">
					<dim>1</dim>
				</port>
			</input>
			<output>
				<port id="2" precision="FP32">
					<dim>4</dim>
				</port>
			</output>
		</layer>
		<layer id="265" name="Resize/Floor" type="Floor" version="opset1">
			<input>
				<port id="0" precision="FP32">
					<dim>4</dim>
				</port>
			</input>
			<output>
				<port id="1" precision="FP32">
					<dim>4</dim>
				</port>
			</output>
		</layer>
		<layer id="266" name="4614" type="Convert" version="opset1">
			<data destination_type="i64"/>
			<input>
				<port id="0" precision="FP32">
					<dim>4</dim>
				</port>
			</input>
			<output>
				<port id="1" precision="I64">
					<dim>4</dim>
				</port>
			</output>
		</layer>
		<layer id="267" name="Resize/StridedSlice_sizes_input_port_1/value459121348" type="Const" version="opset1">
			<data element_type="i64" offset="15731582" shape="1" size="8"/>
			<output>
				<port id="0" precision="I64">
					<dim>1</dim>
				</port>
			</output>
		</layer>
		<layer id="268" name="Resize/StridedSlice_sizes_input_port_2/value459320874" type="Const" version="opset1">
			<data element_type="i64" offset="15731598" shape="1" size="8"/>
			<output>
				<port id="0" precision="I64">
					<dim>1</dim>
				</port>
			</output>
		</layer>
		<layer id="269" name="Resize/StridedSlice_sizes_input_port_3/value459520751" type="Const" version="opset1">
			<data element_type="i64" offset="15731558" shape="1" size="8"/>
			<output>
				<port id="0" precision="I64">
					<dim>1</dim>
				</port>
			</output>
		</layer>
		<layer id="270" name="Resize/StridedSlice_sizes" type="StridedSlice" version="opset1">
			<data begin_mask="0" ellipsis_mask="0" end_mask="0" new_axis_mask="0" shrink_axis_mask="0"/>
			<input>
				<port id="0" precision="I64">
					<dim>4</dim>
				</port>
				<port id="1" precision="I64">
					<dim>1</dim>
				</port>
				<port id="2" precision="I64">
					<dim>1</dim>
				</port>
				<port id="3" precision="I64">
					<dim>1</dim>
				</port>
			</input>
			<output>
				<port id="4" precision="I64">
					<dim>2</dim>
				</port>
			</output>
		</layer>
		<layer id="271" name="Resize/StridedSlice_scales462120925" type="Const" version="opset1">
			<data element_type="f32" offset="15797755" shape="2" size="8"/>
			<output>
				<port id="0" precision="FP32">
					<dim>2</dim>
				</port>
			</output>
		</layer>
		<layer id="272" name="Resize/axis460521432" type="Const" version="opset1">
			<data element_type="i64" offset="15797763" shape="2" size="16"/>
			<output>
				<port id="0" precision="I64">
					<dim>2</dim>
				</port>
			</output>
		</layer>
		<layer id="273" name="Resize" type="Interpolate" version="opset4">
			<data antialias="false" coordinate_transformation_mode="asymmetric" cube_coeff="-0.75" mode="nearest" nearest_mode="floor" pads_begin="0, 0, 0, 0" pads_end="0, 0, 0, 0" shape_calculation_mode="scales"/>
			<input>
				<port id="0" precision="FP16">
					<dim>1</dim>
					<dim>128</dim>
					<dim>13</dim>
					<dim>13</dim>
				</port>
				<port id="1" precision="I64">
					<dim>2</dim>
				</port>
				<port id="2" precision="FP32">
					<dim>2</dim>
				</port>
				<port id="3" precision="I64">
					<dim>2</dim>
				</port>
			</input>
			<output>
				<port id="4" names="model_1/leaky_re_lu_10/LeakyRelu:0_permuted_upsampled" precision="FP16">
					<dim>1</dim>
					<dim>128</dim>
					<dim>26</dim>
					<dim>26</dim>
				</port>
			</output>
		</layer>
		<layer id="274" name="concatenate_1" type="Concat" version="opset1">
			<data axis="1"/>
			<input>
				<port id="0" precision="FP16">
					<dim>1</dim>
					<dim>128</dim>
					<dim>26</dim>
					<dim>26</dim>
				</port>
				<port id="1" precision="FP16">
					<dim>1</dim>
					<dim>256</dim>
					<dim>26</dim>
					<dim>26</dim>
				</port>
			</input>
			<output>
				<port id="2" names="model_1/concatenate_1/concat:0" precision="FP16">
					<dim>1</dim>
					<dim>384</dim>
					<dim>26</dim>
					<dim>26</dim>
				</port>
			</output>
		</layer>
		<layer id="275" name="batch_normalization_11/mean/Fused_Mul__copy" type="Const" version="opset1">
			<data element_type="f16" offset="15797779" shape="256, 384, 3, 3" size="1769472"/>
			<output>
				<port id="0" names="conv2d_12/kernel:0" precision="FP16">
					<dim>256</dim>
					<dim>384</dim>
					<dim>3</dim>
					<dim>3</dim>
				</port>
			</output>
		</layer>
		<layer id="276" name="conv2d_12" type="Convolution" version="opset1">
			<data auto_pad="same_upper" dilations="1, 1" pads_begin="1, 1" pads_end="1, 1" strides="1, 1"/>
			<input>
				<port id="0" precision="FP16">
					<dim>1</dim>
					<dim>384</dim>
					<dim>26</dim>
					<dim>26</dim>
				</port>
				<port id="1" precision="FP16">
					<dim>256</dim>
					<dim>384</dim>
					<dim>3</dim>
					<dim>3</dim>
				</port>
			</input>
			<output>
				<port id="2" precision="FP16">
					<dim>1</dim>
					<dim>256</dim>
					<dim>26</dim>
					<dim>26</dim>
				</port>
			</output>
		</layer>
		<layer id="277" name="data_add_1039810403" type="Const" version="opset1">
			<data element_type="f16" offset="17567251" shape="1, 256, 1, 1" size="512"/>
			<output>
				<port id="0" precision="FP16">
					<dim>1</dim>
					<dim>256</dim>
					<dim>1</dim>
					<dim>1</dim>
				</port>
			</output>
		</layer>
		<layer id="278" name="batch_normalization_11/variance/Fused_Add_" type="Add" version="opset1">
			<data auto_broadcast="numpy"/>
			<input>
				<port id="0" precision="FP16">
					<dim>1</dim>
					<dim>256</dim>
					<dim>26</dim>
					<dim>26</dim>
				</port>
				<port id="1" precision="FP16">
					<dim>1</dim>
					<dim>256</dim>
					<dim>1</dim>
					<dim>1</dim>
				</port>
			</input>
			<output>
				<port id="2" names="batch_norm_output_buffer" precision="FP16">
					<dim>1</dim>
					<dim>256</dim>
					<dim>26</dim>
					<dim>26</dim>
				</port>
			</output>
		</layer>
		<layer id="279" name="leaky_re_lu_11/weights1494121231" type="Const" version="opset1">
			<data element_type="f32" offset="896" shape="1" size="4"/>
			<output>
				<port id="0" precision="FP32">
					<dim>1</dim>
				</port>
			</output>
		</layer>
		<layer id="280" name="leaky_re_lu_11" type="PReLU" version="opset1">
			<input>
				<port id="0" precision="FP16">
					<dim>1</dim>
					<dim>256</dim>
					<dim>26</dim>
					<dim>26</dim>
				</port>
				<port id="1" precision="FP32">
					<dim>1</dim>
				</port>
			</input>
			<output>
				<port id="2" names="model_1/leaky_re_lu_11/LeakyRelu:0" precision="FP16">
					<dim>1</dim>
					<dim>256</dim>
					<dim>26</dim>
					<dim>26</dim>
				</port>
			</output>
		</layer>
		<layer id="281" name="conv2d_13/kernel:0" type="Const" version="opset1">
			<data element_type="f16" offset="17567763" shape="255, 256, 1, 1" size="130560"/>
			<output>
				<port id="0" names="conv2d_13/kernel:0" precision="FP16">
					<dim>255</dim>
					<dim>256</dim>
					<dim>1</dim>
					<dim>1</dim>
				</port>
			</output>
		</layer>
		<layer id="282" name="conv2d_13/WithoutBiases" type="Convolution" version="opset1">
			<data auto_pad="same_upper" dilations="1, 1" pads_begin="0, 0" pads_end="0, 0" strides="1, 1"/>
			<input>
				<port id="0" precision="FP16">
					<dim>1</dim>
					<dim>256</dim>
					<dim>26</dim>
					<dim>26</dim>
				</port>
				<port id="1" precision="FP16">
					<dim>255</dim>
					<dim>256</dim>
					<dim>1</dim>
					<dim>1</dim>
				</port>
			</input>
			<output>
				<port id="2" precision="FP16">
					<dim>1</dim>
					<dim>255</dim>
					<dim>26</dim>
					<dim>26</dim>
				</port>
			</output>
		</layer>
		<layer id="283" name="conv2d_13/Dims5561" type="Const" version="opset1">
			<data element_type="f16" offset="17698323" shape="1, 255, 1, 1" size="510"/>
			<output>
				<port id="0" precision="FP16">
					<dim>1</dim>
					<dim>255</dim>
					<dim>1</dim>
					<dim>1</dim>
				</port>
			</output>
		</layer>
		<layer id="284" name="conv2d_13" type="Add" version="opset1">
			<data auto_broadcast="numpy"/>
			<input>
				<port id="0" precision="FP16">
					<dim>1</dim>
					<dim>255</dim>
					<dim>26</dim>
					<dim>26</dim>
				</port>
				<port id="1" precision="FP16">
					<dim>1</dim>
					<dim>255</dim>
					<dim>1</dim>
					<dim>1</dim>
				</port>
			</input>
			<output>
				<port id="2" names="convolution_output" precision="FP16">
					<dim>1</dim>
					<dim>255</dim>
					<dim>26</dim>
					<dim>26</dim>
				</port>
			</output>
		</layer>
		<layer id="285" name="559" type="Const" version="opset1">
			<data element_type="i64" offset="15731522" shape="4" size="32"/>
			<output>
				<port id="0" precision="I64">
					<dim>4</dim>
				</port>
			</output>
		</layer>
		<layer id="286" name="Transpose2" type="Transpose" version="opset1">
			<input>
				<port id="0" precision="FP16">
					<dim>1</dim>
					<dim>255</dim>
					<dim>26</dim>
					<dim>26</dim>
				</port>
				<port id="1" precision="I64">
					<dim>4</dim>
				</port>
			</input>
			<output>
				<port id="2" names="TFNodes/model_1/conv2d_13/BiasAdd:0,transpose_output" precision="FP16">
					<dim>1</dim>
					<dim>26</dim>
					<dim>26</dim>
					<dim>255</dim>
				</port>
			</output>
		</layer>
		<layer id="287" name="TFNodes/yolo_evaluation_layer_1/Reshape_9/shape_Unsqueeze__30/Unsqueeze" type="Const" version="opset1">
			<data element_type="i32" offset="15731554" shape="1" size="4"/>
			<output>
				<port id="0" names="TFNodes/yolo_evaluation_layer_1/Reshape_9/shape_Unsqueeze__30:0" precision="I32">
					<dim>1</dim>
				</port>
			</output>
		</layer>
		<layer id="288" name="TFNodes/yolo_evaluation_layer_1/Shape_2" type="ShapeOf" version="opset3">
			<data output_type="i64"/>
			<input>
				<port id="0" precision="FP16">
					<dim>1</dim>
					<dim>26</dim>
					<dim>26</dim>
					<dim>255</dim>
				</port>
			</input>
			<output>
				<port id="1" names="TFNodes/yolo_evaluation_layer_1/Shape_2:0" precision="I64">
					<dim>4</dim>
				</port>
			</output>
		</layer>
		<layer id="289" name="TFNodes/yolo_evaluation_layer_1/Shape_2__11" type="Convert" version="opset1">
			<data destination_type="i32"/>
			<input>
				<port id="0" precision="I64">
					<dim>4</dim>
				</port>
			</input>
			<output>
				<port id="1" names="TFNodes/yolo_evaluation_layer_1/Shape_2__11:0" precision="I32">
					<dim>4</dim>
				</port>
			</output>
		</layer>
		<layer id="290" name="TFNodes/yolo_evaluation_layer_1/strided_slice_20/Concat681920865" type="Const" version="opset1">
			<data element_type="i64" offset="15731558" shape="1" size="8"/>
			<output>
				<port id="0" precision="I64">
					<dim>1</dim>
				</port>
			</output>
		</layer>
		<layer id="291" name="TFNodes/yolo_evaluation_layer_1/strided_slice_20/Concat6809682021222" type="Const" version="opset1">
			<data element_type="i64" offset="15731566" shape="1" size="8"/>
			<output>
				<port id="0" precision="I64">
					<dim>1</dim>
				</port>
			</output>
		</layer>
		<layer id="292" name="TFNodes/yolo_evaluation_layer_1/strided_slice_20/Strides682121390" type="Const" version="opset1">
			<data element_type="i64" offset="15731558" shape="1" size="8"/>
			<output>
				<port id="0" precision="I64">
					<dim>1</dim>
				</port>
			</output>
		</layer>
		<layer id="293" name="TFNodes/yolo_evaluation_layer_1/strided_slice_20" type="StridedSlice" version="opset1">
			<data begin_mask="0" ellipsis_mask="0" end_mask="0" new_axis_mask="0" shrink_axis_mask="0"/>
			<input>
				<port id="0" precision="I32">
					<dim>4</dim>
				</port>
				<port id="1" precision="I64">
					<dim>1</dim>
				</port>
				<port id="2" precision="I64">
					<dim>1</dim>
				</port>
				<port id="3" precision="I64">
					<dim>1</dim>
				</port>
			</input>
			<output>
				<port id="4" names="TFNodes/yolo_evaluation_layer_1/strided_slice_20:0" precision="I32">
					<dim>2</dim>
				</port>
			</output>
		</layer>
		<layer id="294" name="TFNodes/yolo_evaluation_layer_1/strided_slice_25/Concat699921159" type="Const" version="opset1">
			<data element_type="i64" offset="15731574" shape="1" size="8"/>
			<output>
				<port id="0" precision="I64">
					<dim>1</dim>
				</port>
			</output>
		</layer>
		<layer id="295" name="TFNodes/yolo_evaluation_layer_1/strided_slice_25/Concat6989700020994" type="Const" version="opset1">
			<data element_type="i64" offset="15731558" shape="1" size="8"/>
			<output>
				<port id="0" precision="I64">
					<dim>1</dim>
				</port>
			</output>
		</layer>
		<layer id="296" name="TFNodes/yolo_evaluation_layer_1/strided_slice_25/Strides700121342" type="Const" version="opset1">
			<data element_type="i64" offset="15731558" shape="1" size="8"/>
			<output>
				<port id="0" precision="I64">
					<dim>1</dim>
				</port>
			</output>
		</layer>
		<layer id="297" name="TFNodes/yolo_evaluation_layer_1/strided_slice_25" type="StridedSlice" version="opset1">
			<data begin_mask="0" ellipsis_mask="0" end_mask="0" new_axis_mask="0" shrink_axis_mask="0"/>
			<input>
				<port id="0" precision="I32">
					<dim>2</dim>
				</port>
				<port id="1" precision="I64">
					<dim>1</dim>
				</port>
				<port id="2" precision="I64">
					<dim>1</dim>
				</port>
				<port id="3" precision="I64">
					<dim>1</dim>
				</port>
			</input>
			<output>
				<port id="4" names="TFNodes/yolo_evaluation_layer_1/strided_slice_25:0" precision="I32">
					<dim>1</dim>
				</port>
			</output>
		</layer>
		<layer id="298" name="TFNodes/yolo_evaluation_layer_1/strided_slice_25__29/Dims" type="Const" version="opset1">
			<data element_type="i64" offset="15731574" shape="1" size="8"/>
			<output>
				<port id="0" precision="I64">
					<dim>1</dim>
				</port>
			</output>
		</layer>
		<layer id="299" name="TFNodes/yolo_evaluation_layer_1/strided_slice_25__29" type="Squeeze" version="opset1">
			<input>
				<port id="0" precision="I32">
					<dim>1</dim>
				</port>
				<port id="1" precision="I64">
					<dim>1</dim>
				</port>
			</input>
			<output>
				<port id="2" names="TFNodes/yolo_evaluation_layer_1/strided_slice_25__29:0" precision="I32"/>
			</output>
		</layer>
		<layer id="300" name="TFNodes/yolo_evaluation_layer_1/Reshape_9/shape_Unsqueeze__31/Dims" type="Const" version="opset1">
			<data element_type="i64" offset="15731574" shape="1" size="8"/>
			<output>
				<port id="0" precision="I64">
					<dim>1</dim>
				</port>
			</output>
		</layer>
		<layer id="301" name="TFNodes/yolo_evaluation_layer_1/Reshape_9/shape_Unsqueeze__31/Unsqueeze" type="Unsqueeze" version="opset1">
			<input>
				<port id="0" precision="I32"/>
				<port id="1" precision="I64">
					<dim>1</dim>
				</port>
			</input>
			<output>
				<port id="2" names="TFNodes/yolo_evaluation_layer_1/Reshape_9/shape_Unsqueeze__31:0" precision="I32">
					<dim>1</dim>
				</port>
			</output>
		</layer>
		<layer id="302" name="TFNodes/yolo_evaluation_layer_1/strided_slice_26/Concat703520985" type="Const" version="opset1">
			<data element_type="i64" offset="15731558" shape="1" size="8"/>
			<output>
				<port id="0" precision="I64">
					<dim>1</dim>
				</port>
			</output>
		</layer>
		<layer id="303" name="TFNodes/yolo_evaluation_layer_1/strided_slice_26/Concat7025703621336" type="Const" version="opset1">
			<data element_type="i64" offset="15731582" shape="1" size="8"/>
			<output>
				<port id="0" precision="I64">
					<dim>1</dim>
				</port>
			</output>
		</layer>
		<layer id="304" name="TFNodes/yolo_evaluation_layer_1/strided_slice_26/Strides703720895" type="Const" version="opset1">
			<data element_type="i64" offset="15731558" shape="1" size="8"/>
			<output>
				<port id="0" precision="I64">
					<dim>1</dim>
				</port>
			</output>
		</layer>
		<layer id="305" name="TFNodes/yolo_evaluation_layer_1/strided_slice_26" type="StridedSlice" version="opset1">
			<data begin_mask="0" ellipsis_mask="0" end_mask="0" new_axis_mask="0" shrink_axis_mask="0"/>
			<input>
				<port id="0" precision="I32">
					<dim>2</dim>
				</port>
				<port id="1" precision="I64">
					<dim>1</dim>
				</port>
				<port id="2" precision="I64">
					<dim>1</dim>
				</port>
				<port id="3" precision="I64">
					<dim>1</dim>
				</port>
			</input>
			<output>
				<port id="4" names="TFNodes/yolo_evaluation_layer_1/strided_slice_26:0" precision="I32">
					<dim>1</dim>
				</port>
			</output>
		</layer>
		<layer id="306" name="TFNodes/yolo_evaluation_layer_1/strided_slice_26__24/Dims" type="Const" version="opset1">
			<data element_type="i64" offset="15731574" shape="1" size="8"/>
			<output>
				<port id="0" precision="I64">
					<dim>1</dim>
				</port>
			</output>
		</layer>
		<layer id="307" name="TFNodes/yolo_evaluation_layer_1/strided_slice_26__24" type="Squeeze" version="opset1">
			<input>
				<port id="0" precision="I32">
					<dim>1</dim>
				</port>
				<port id="1" precision="I64">
					<dim>1</dim>
				</port>
			</input>
			<output>
				<port id="2" names="TFNodes/yolo_evaluation_layer_1/strided_slice_26__24:0" precision="I32"/>
			</output>
		</layer>
		<layer id="308" name="TFNodes/yolo_evaluation_layer_1/Reshape_9/shape_Unsqueeze__32/Dims" type="Const" version="opset1">
			<data element_type="i64" offset="15731574" shape="1" size="8"/>
			<output>
				<port id="0" precision="I64">
					<dim>1</dim>
				</port>
			</output>
		</layer>
		<layer id="309" name="TFNodes/yolo_evaluation_layer_1/Reshape_9/shape_Unsqueeze__32/Unsqueeze" type="Unsqueeze" version="opset1">
			<input>
				<port id="0" precision="I32"/>
				<port id="1" precision="I64">
					<dim>1</dim>
				</port>
			</input>
			<output>
				<port id="2" names="TFNodes/yolo_evaluation_layer_1/Reshape_9/shape_Unsqueeze__32:0" precision="I32">
					<dim>1</dim>
				</port>
			</output>
		</layer>
		<layer id="310" name="TFNodes/yolo_evaluation_layer_1/Reshape_9/shape_Unsqueeze__33/Unsqueeze" type="Const" version="opset1">
			<data element_type="i32" offset="15731590" shape="1" size="4"/>
			<output>
				<port id="0" names="TFNodes/yolo_evaluation_layer_1/Reshape_9/shape_Unsqueeze__33:0" precision="I32">
					<dim>1</dim>
				</port>
			</output>
		</layer>
		<layer id="311" name="TFNodes/yolo_evaluation_layer_1/Reshape_9/shape_Unsqueeze__34/Unsqueeze" type="Const" version="opset1">
			<data element_type="i32" offset="15731594" shape="1" size="4"/>
			<output>
				<port id="0" names="TFNodes/yolo_evaluation_layer_1/Reshape_9/shape_Unsqueeze__34:0" precision="I32">
					<dim>1</dim>
				</port>
			</output>
		</layer>
		<layer id="312" name="TFNodes/yolo_evaluation_layer_1/Reshape_9/shape_Concat__35" type="Concat" version="opset1">
			<data axis="0"/>
			<input>
				<port id="0" precision="I32">
					<dim>1</dim>
				</port>
				<port id="1" precision="I32">
					<dim>1</dim>
				</port>
				<port id="2" precision="I32">
					<dim>1</dim>
				</port>
				<port id="3" precision="I32">
					<dim>1</dim>
				</port>
				<port id="4" precision="I32">
					<dim>1</dim>
				</port>
			</input>
			<output>
				<port id="5" names="TFNodes/yolo_evaluation_layer_1/Reshape_9/shape_Concat__35:0" precision="I32">
					<dim>5</dim>
				</port>
			</output>
		</layer>
		<layer id="313" name="TFNodes/yolo_evaluation_layer_1/Reshape_9__86" type="Convert" version="opset1">
			<data destination_type="i64"/>
			<input>
				<port id="0" precision="I32">
					<dim>5</dim>
				</port>
			</input>
			<output>
				<port id="1" names="TFNodes/yolo_evaluation_layer_1/Reshape_9__86:0" precision="I64">
					<dim>5</dim>
				</port>
			</output>
		</layer>
		<layer id="314" name="TFNodes/yolo_evaluation_layer_1/Reshape_9" type="Reshape" version="opset1">
			<data special_zero="true"/>
			<input>
				<port id="0" precision="FP16">
					<dim>1</dim>
					<dim>26</dim>
					<dim>26</dim>
					<dim>255</dim>
				</port>
				<port id="1" precision="I64">
					<dim>5</dim>
				</port>
			</input>
			<output>
				<port id="2" names="TFNodes/yolo_evaluation_layer_1/Reshape_9:0" precision="FP16">
					<dim>1</dim>
					<dim>26</dim>
					<dim>26</dim>
					<dim>3</dim>
					<dim>85</dim>
				</port>
			</output>
		</layer>
		<layer id="315" name="788121075" type="Const" version="opset1">
			<data element_type="i64" offset="15731598" shape="" size="8"/>
			<output>
				<port id="0" precision="I64"/>
			</output>
		</layer>
		<layer id="316" name="788320853" type="Const" version="opset1">
			<data element_type="i64" offset="15731606" shape="4" size="32"/>
			<output>
				<port id="0" precision="I64">
					<dim>4</dim>
				</port>
			</output>
		</layer>
		<layer id="317" name="TFNodes/yolo_evaluation_layer_1/strided_slice_27/Split" type="VariadicSplit" version="opset1">
			<input>
				<port id="0" precision="FP16">
					<dim>1</dim>
					<dim>26</dim>
					<dim>26</dim>
					<dim>3</dim>
					<dim>85</dim>
				</port>
				<port id="1" precision="I64"/>
				<port id="2" precision="I64">
					<dim>4</dim>
				</port>
			</input>
			<output>
				<port id="3" names="TFNodes/yolo_evaluation_layer_1/strided_slice_27:0" precision="FP16">
					<dim>1</dim>
					<dim>26</dim>
					<dim>26</dim>
					<dim>3</dim>
					<dim>2</dim>
				</port>
				<port id="4" names="TFNodes/yolo_evaluation_layer_1/strided_slice_29:0" precision="FP16">
					<dim>1</dim>
					<dim>26</dim>
					<dim>26</dim>
					<dim>3</dim>
					<dim>2</dim>
				</port>
				<port id="5" names="TFNodes/yolo_evaluation_layer_1/strided_slice_31:0" precision="FP16">
					<dim>1</dim>
					<dim>26</dim>
					<dim>26</dim>
					<dim>3</dim>
					<dim>1</dim>
				</port>
				<port id="6" names="TFNodes/yolo_evaluation_layer_1/strided_slice_32:0" precision="FP16">
					<dim>1</dim>
					<dim>26</dim>
					<dim>26</dim>
					<dim>3</dim>
					<dim>80</dim>
				</port>
			</output>
		</layer>
		<layer id="318" name="TFNodes/yolo_evaluation_layer_1/Sigmoid_3" type="Sigmoid" version="opset1">
			<input>
				<port id="0" precision="FP16">
					<dim>1</dim>
					<dim>26</dim>
					<dim>26</dim>
					<dim>3</dim>
					<dim>2</dim>
				</port>
			</input>
			<output>
				<port id="1" names="TFNodes/yolo_evaluation_layer_1/Sigmoid_3:0" precision="FP16">
					<dim>1</dim>
					<dim>26</dim>
					<dim>26</dim>
					<dim>3</dim>
					<dim>2</dim>
				</port>
			</output>
		</layer>
		<layer id="319" name="TFNodes/yolo_evaluation_layer_1/strided_slice_23/Concat692721021" type="Const" version="opset1">
			<data element_type="i64" offset="15731558" shape="1" size="8"/>
			<output>
				<port id="0" precision="I64">
					<dim>1</dim>
				</port>
			</output>
		</layer>
		<layer id="320" name="TFNodes/yolo_evaluation_layer_1/strided_slice_23/Concat6917692821345" type="Const" version="opset1">
			<data element_type="i64" offset="15731582" shape="1" size="8"/>
			<output>
				<port id="0" precision="I64">
					<dim>1</dim>
				</port>
			</output>
		</layer>
		<layer id="321" name="TFNodes/yolo_evaluation_layer_1/strided_slice_23/Strides692921372" type="Const" version="opset1">
			<data element_type="i64" offset="15731558" shape="1" size="8"/>
			<output>
				<port id="0" precision="I64">
					<dim>1</dim>
				</port>
			</output>
		</layer>
		<layer id="322" name="TFNodes/yolo_evaluation_layer_1/strided_slice_23" type="StridedSlice" version="opset1">
			<data begin_mask="0" ellipsis_mask="0" end_mask="0" new_axis_mask="0" shrink_axis_mask="0"/>
			<input>
				<port id="0" precision="I32">
					<dim>2</dim>
				</port>
				<port id="1" precision="I64">
					<dim>1</dim>
				</port>
				<port id="2" precision="I64">
					<dim>1</dim>
				</port>
				<port id="3" precision="I64">
					<dim>1</dim>
				</port>
			</input>
			<output>
				<port id="4" names="TFNodes/yolo_evaluation_layer_1/strided_slice_23:0" precision="I32">
					<dim>1</dim>
				</port>
			</output>
		</layer>
		<layer id="323" name="TFNodes/yolo_evaluation_layer_1/strided_slice_23__50/Dims" type="Const" version="opset1">
			<data element_type="i64" offset="15731574" shape="1" size="8"/>
			<output>
				<port id="0" precision="I64">
					<dim>1</dim>
				</port>
			</output>
		</layer>
		<layer id="324" name="TFNodes/yolo_evaluation_layer_1/strided_slice_23__50" type="Squeeze" version="opset1">
			<input>
				<port id="0" precision="I32">
					<dim>1</dim>
				</port>
				<port id="1" precision="I64">
					<dim>1</dim>
				</port>
			</input>
			<output>
				<port id="2" names="TFNodes/yolo_evaluation_layer_1/strided_slice_23__50:0" precision="I32"/>
			</output>
		</layer>
		<layer id="325" name="TFNodes/yolo_evaluation_layer_1/arange_3/start:0" type="Const" version="opset1">
			<data element_type="i32" offset="15731638" shape="" size="4"/>
			<output>
				<port id="0" names="TFNodes/yolo_evaluation_layer_1/arange_3/start:0" precision="I32"/>
			</output>
		</layer>
		<layer id="326" name="TFNodes/yolo_evaluation_layer_1/arange_3__51_diff__52" type="Subtract" version="opset1">
			<data auto_broadcast="numpy"/>
			<input>
				<port id="0" precision="I32"/>
				<port id="1" precision="I32"/>
			</input>
			<output>
				<port id="2" names="TFNodes/yolo_evaluation_layer_1/arange_3__51_diff__52:0" precision="I32"/>
			</output>
		</layer>
		<layer id="327" name="TFNodes/yolo_evaluation_layer_1/arange_3__51_cast_diff" type="Convert" version="opset1">
			<data destination_type="f16"/>
			<input>
				<port id="0" precision="I32"/>
			</input>
			<output>
				<port id="1" names="TFNodes/yolo_evaluation_layer_1/arange_3__51_cast_diff:0" precision="FP16"/>
			</output>
		</layer>
		<layer id="328" name="TFNodes/yolo_evaluation_layer_1/arange_3__51_cast_delta" type="Const" version="opset1">
			<data element_type="f16" offset="15731642" shape="" size="2"/>
			<output>
				<port id="0" names="TFNodes/yolo_evaluation_layer_1/arange_3__51_cast_delta:0" precision="FP16"/>
			</output>
		</layer>
		<layer id="329" name="TFNodes/yolo_evaluation_layer_1/arange_3__51_div" type="Divide" version="opset1">
			<data auto_broadcast="numpy" m_pythondiv="true"/>
			<input>
				<port id="0" precision="FP16"/>
				<port id="1" precision="FP16"/>
			</input>
			<output>
				<port id="2" names="TFNodes/yolo_evaluation_layer_1/arange_3__51_div:0" precision="FP16"/>
			</output>
		</layer>
		<layer id="330" name="TFNodes/yolo_evaluation_layer_1/arange_3__51_ceil" type="Ceiling" version="opset1">
			<input>
				<port id="0" precision="FP16"/>
			</input>
			<output>
				<port id="1" names="TFNodes/yolo_evaluation_layer_1/arange_3__51_ceil:0" precision="FP16"/>
			</output>
		</layer>
		<layer id="331" name="TFNodes/yolo_evaluation_layer_1/arange_3__51_trip_cnt" type="Convert" version="opset1">
			<data destination_type="i64"/>
			<input>
				<port id="0" precision="FP16"/>
			</input>
			<output>
				<port id="1" names="TFNodes/yolo_evaluation_layer_1/arange_3__51_trip_cnt:0" precision="I64"/>
			</output>
		</layer>
		<layer id="332" name="TFNodes/yolo_evaluation_layer_1/arange_3__51_cond" type="Const" version="opset1">
			<data element_type="boolean" offset="15731644" shape="" size="1"/>
			<output>
				<port id="0" names="TFNodes/yolo_evaluation_layer_1/arange_3__51_cond" precision="BOOL"/>
			</output>
		</layer>
		<layer id="333" name="TFNodes/yolo_evaluation_layer_1/arange_3/start:021360" type="Const" version="opset1">
			<data element_type="i32" offset="15731638" shape="" size="4"/>
			<output>
				<port id="0" names="TFNodes/yolo_evaluation_layer_1/arange_3/start:0" precision="I32"/>
			</output>
		</layer>
		<layer id="334" name="TFNodes/yolo_evaluation_layer_1/arange_3__51_loop" type="Loop" version="opset5">
			<port_map>
				<input external_port_id="1" internal_layer_id="1"/>
				<input external_port_id="2" internal_layer_id="0"/>
				<output axis="0" end="-1" external_port_id="3" internal_layer_id="4" part_size="1" start="0" stride="1"/>
				<output external_port_id="-1" internal_layer_id="8" purpose="execution_condition"/>
			</port_map>
			<back_edges>
				<edge from-layer="8" to-layer="1"/>
				<edge from-layer="7" to-layer="0"/>
			</back_edges>
			<input>
				<port id="0" precision="I64"/>
				<port id="1" precision="BOOL"/>
				<port id="2" precision="I32"/>
			</input>
			<output>
				<port id="3" names="TFNodes/yolo_evaluation_layer_1/arange_3__51_loop:1" precision="I32">
					<dim>26</dim>
				</port>
			</output>
			<body>
				<layers>
					<layer id="0" name="prev" type="Parameter" version="opset1">
						<data element_type="i32" shape=""/>
						<output>
							<port id="0" names="prev" precision="I32"/>
						</output>
					</layer>
					<layer id="1" name="cond" type="Parameter" version="opset1">
						<data element_type="boolean" shape=""/>
						<output>
							<port id="0" names="cond" precision="BOOL"/>
						</output>
					</layer>
					<layer id="2" name="11_input_port_1/value" type="Const" version="opset1">
						<data element_type="i64" offset="15731574" shape="1" size="8"/>
						<output>
							<port id="0" precision="I64">
								<dim>1</dim>
							</port>
						</output>
					</layer>
					<layer id="3" name="11" type="Unsqueeze" version="opset1">
						<input>
							<port id="0" precision="I32"/>
							<port id="1" precision="I64">
								<dim>1</dim>
							</port>
						</input>
						<output>
							<port id="2" precision="I32">
								<dim>1</dim>
							</port>
						</output>
					</layer>
					<layer id="4" name="Identity__58/sink_port_0" type="Result" version="opset1">
						<input>
							<port id="0" precision="I32">
								<dim>1</dim>
							</port>
						</input>
					</layer>
					<layer id="5" name="TFNodes/yolo_evaluation_layer_1/arange_3/delta:0" type="Const" version="opset1">
						<data element_type="i32" offset="15731645" shape="" size="4"/>
						<output>
							<port id="0" names="TFNodes/yolo_evaluation_layer_1/arange_3/delta:0" precision="I32"/>
						</output>
					</layer>
					<layer id="6" name="add__57" type="Add" version="opset1">
						<data auto_broadcast="numpy"/>
						<input>
							<port id="0" precision="I32"/>
							<port id="1" precision="I32"/>
						</input>
						<output>
							<port id="2" precision="I32"/>
						</output>
					</layer>
					<layer id="7" name="add__57/sink_port_0" type="Result" version="opset1">
						<input>
							<port id="0" precision="I32"/>
						</input>
					</layer>
					<layer id="8" name="Identity__56/sink_port_0" type="Result" version="opset1">
						<input>
							<port id="0" precision="BOOL"/>
						</input>
					</layer>
				</layers>
				<edges>
					<edge from-layer="0" from-port="0" to-layer="3" to-port="0"/>
					<edge from-layer="0" from-port="0" to-layer="6" to-port="0"/>
					<edge from-layer="1" from-port="0" to-layer="8" to-port="0"/>
					<edge from-layer="2" from-port="0" to-layer="3" to-port="1"/>
					<edge from-layer="3" from-port="2" to-layer="4" to-port="0"/>
					<edge from-layer="5" from-port="0" to-layer="6" to-port="1"/>
					<edge from-layer="6" from-port="2" to-layer="7" to-port="0"/>
				</edges>
			</body>
		</layer>
		<layer id="335" name="TFNodes/yolo_evaluation_layer_1/Reshape_8__59" type="Const" version="opset1">
			<data element_type="i64" offset="15731649" shape="4" size="32"/>
			<output>
				<port id="0" names="TFNodes/yolo_evaluation_layer_1/Reshape_8__59:0" precision="I64">
					<dim>4</dim>
				</port>
			</output>
		</layer>
		<layer id="336" name="TFNodes/yolo_evaluation_layer_1/Reshape_8" type="Reshape" version="opset1">
			<data special_zero="true"/>
			<input>
				<port id="0" precision="I32">
					<dim>26</dim>
				</port>
				<port id="1" precision="I64">
					<dim>4</dim>
				</port>
			</input>
			<output>
				<port id="2" names="TFNodes/yolo_evaluation_layer_1/Reshape_8:0" precision="I32">
					<dim>1</dim>
					<dim>26</dim>
					<dim>1</dim>
					<dim>1</dim>
				</port>
			</output>
		</layer>
		<layer id="337" name="TFNodes/yolo_evaluation_layer_1/strided_slice_24/Concat696320928" type="Const" version="opset1">
			<data element_type="i64" offset="15731574" shape="1" size="8"/>
			<output>
				<port id="0" precision="I64">
					<dim>1</dim>
				</port>
			</output>
		</layer>
		<layer id="338" name="TFNodes/yolo_evaluation_layer_1/strided_slice_24/Concat6953696421123" type="Const" version="opset1">
			<data element_type="i64" offset="15731558" shape="1" size="8"/>
			<output>
				<port id="0" precision="I64">
					<dim>1</dim>
				</port>
			</output>
		</layer>
		<layer id="339" name="TFNodes/yolo_evaluation_layer_1/strided_slice_24/Strides696520916" type="Const" version="opset1">
			<data element_type="i64" offset="15731558" shape="1" size="8"/>
			<output>
				<port id="0" precision="I64">
					<dim>1</dim>
				</port>
			</output>
		</layer>
		<layer id="340" name="TFNodes/yolo_evaluation_layer_1/strided_slice_24" type="StridedSlice" version="opset1">
			<data begin_mask="0" ellipsis_mask="0" end_mask="0" new_axis_mask="0" shrink_axis_mask="0"/>
			<input>
				<port id="0" precision="I32">
					<dim>2</dim>
				</port>
				<port id="1" precision="I64">
					<dim>1</dim>
				</port>
				<port id="2" precision="I64">
					<dim>1</dim>
				</port>
				<port id="3" precision="I64">
					<dim>1</dim>
				</port>
			</input>
			<output>
				<port id="4" names="TFNodes/yolo_evaluation_layer_1/strided_slice_24:0" precision="I32">
					<dim>1</dim>
				</port>
			</output>
		</layer>
		<layer id="341" name="TFNodes/yolo_evaluation_layer_1/strided_slice_24__40/Dims" type="Const" version="opset1">
			<data element_type="i64" offset="15731574" shape="1" size="8"/>
			<output>
				<port id="0" precision="I64">
					<dim>1</dim>
				</port>
			</output>
		</layer>
		<layer id="342" name="TFNodes/yolo_evaluation_layer_1/strided_slice_24__40" type="Squeeze" version="opset1">
			<input>
				<port id="0" precision="I32">
					<dim>1</dim>
				</port>
				<port id="1" precision="I64">
					<dim>1</dim>
				</port>
			</input>
			<output>
				<port id="2" names="TFNodes/yolo_evaluation_layer_1/strided_slice_24__40:0" precision="I32"/>
			</output>
		</layer>
		<layer id="343" name="TFNodes/yolo_evaluation_layer_1/Tile_3/multiples_Unsqueeze__41/Dims" type="Const" version="opset1">
			<data element_type="i64" offset="15731574" shape="1" size="8"/>
			<output>
				<port id="0" precision="I64">
					<dim>1</dim>
				</port>
			</output>
		</layer>
		<layer id="344" name="TFNodes/yolo_evaluation_layer_1/Tile_3/multiples_Unsqueeze__41/Unsqueeze" type="Unsqueeze" version="opset1">
			<input>
				<port id="0" precision="I32"/>
				<port id="1" precision="I64">
					<dim>1</dim>
				</port>
			</input>
			<output>
				<port id="2" names="TFNodes/yolo_evaluation_layer_1/Tile_3/multiples_Unsqueeze__41:0" precision="I32">
					<dim>1</dim>
				</port>
			</output>
		</layer>
		<layer id="345" name="TFNodes/yolo_evaluation_layer_1/Tile_3/multiples_Unsqueeze__42/Unsqueeze" type="Const" version="opset1">
…
					<dim>2028</dim>
					<dim>4</dim>
				</port>
			</input>
			<output>
				<port id="2" names="TFNodes/yolo_evaluation_layer_1/concat_6:0" precision="FP16">
					<dim>2535</dim>
					<dim>4</dim>
				</port>
			</output>
		</layer>
		<layer id="463" name="yolo_evaluation_layer_1/concat_6:0_btc/Dims" type="Const" version="opset1">
			<data element_type="i64" offset="15731574" shape="1" size="8"/>
			<output>
				<port id="0" precision="I64">
					<dim>1</dim>
				</port>
			</output>
		</layer>
		<layer id="464" name="yolonms_layer_1" type="Unsqueeze" version="opset1">
			<input>
				<port id="0" precision="FP16">
					<dim>2535</dim>
					<dim>4</dim>
				</port>
				<port id="1" precision="I64">
					<dim>1</dim>
				</port>
			</input>
			<output>
				<port id="2" names="yolo_evaluation_layer_1/concat_6:0_btc,yolonms_layer_1" precision="FP16">
					<dim>1</dim>
					<dim>2535</dim>
					<dim>4</dim>
				</port>
			</output>
		</layer>
		<layer id="465" name="TFNodes/yolo_evaluation_layer_1/Sigmoid_1" type="Sigmoid" version="opset1">
			<input>
				<port id="0" precision="FP16">
					<dim>1</dim>
					<dim>13</dim>
					<dim>13</dim>
					<dim>3</dim>
					<dim>1</dim>
				</port>
			</input>
			<output>
				<port id="1" names="TFNodes/yolo_evaluation_layer_1/Sigmoid_1:0" precision="FP16">
					<dim>1</dim>
					<dim>13</dim>
					<dim>13</dim>
					<dim>3</dim>
					<dim>1</dim>
				</port>
			</output>
		</layer>
		<layer id="466" name="TFNodes/yolo_evaluation_layer_1/Sigmoid_2" type="Sigmoid" version="opset1">
			<input>
				<port id="0" precision="FP16">
					<dim>1</dim>
					<dim>13</dim>
					<dim>13</dim>
					<dim>3</dim>
					<dim>80</dim>
				</port>
			</input>
			<output>
				<port id="1" names="TFNodes/yolo_evaluation_layer_1/Sigmoid_2:0" precision="FP16">
					<dim>1</dim>
					<dim>13</dim>
					<dim>13</dim>
					<dim>3</dim>
					<dim>80</dim>
				</port>
			</output>
		</layer>
		<layer id="467" name="TFNodes/yolo_evaluation_layer_1/mul_6" type="Multiply" version="opset1">
			<data auto_broadcast="numpy"/>
			<input>
				<port id="0" precision="FP16">
					<dim>1</dim>
					<dim>13</dim>
					<dim>13</dim>
					<dim>3</dim>
					<dim>1</dim>
				</port>
				<port id="1" precision="FP16">
					<dim>1</dim>
					<dim>13</dim>
					<dim>13</dim>
					<dim>3</dim>
					<dim>80</dim>
				</port>
			</input>
			<output>
				<port id="2" names="TFNodes/yolo_evaluation_layer_1/mul_6:0" precision="FP16">
					<dim>1</dim>
					<dim>13</dim>
					<dim>13</dim>
					<dim>3</dim>
					<dim>80</dim>
				</port>
			</output>
		</layer>
		<layer id="468" name="TFNodes/yolo_evaluation_layer_1/Reshape_5__217" type="Const" version="opset1">
			<data element_type="i64" offset="17698845" shape="2" size="16"/>
			<output>
				<port id="0" names="TFNodes/yolo_evaluation_layer_1/Reshape_5__217:0" precision="I64">
					<dim>2</dim>
				</port>
			</output>
		</layer>
		<layer id="469" name="TFNodes/yolo_evaluation_layer_1/Reshape_5" type="Reshape" version="opset1">
			<data special_zero="true"/>
			<input>
				<port id="0" precision="FP16">
					<dim>1</dim>
					<dim>13</dim>
					<dim>13</dim>
					<dim>3</dim>
					<dim>80</dim>
				</port>
				<port id="1" precision="I64">
					<dim>2</dim>
				</port>
			</input>
			<output>
				<port id="2" names="TFNodes/yolo_evaluation_layer_1/Reshape_5:0" precision="FP16">
					<dim>507</dim>
					<dim>80</dim>
				</port>
			</output>
		</layer>
		<layer id="470" name="TFNodes/yolo_evaluation_layer_1/Sigmoid_4" type="Sigmoid" version="opset1">
			<input>
				<port id="0" precision="FP16">
					<dim>1</dim>
					<dim>26</dim>
					<dim>26</dim>
					<dim>3</dim>
					<dim>1</dim>
				</port>
			</input>
			<output>
				<port id="1" names="TFNodes/yolo_evaluation_layer_1/Sigmoid_4:0" precision="FP16">
					<dim>1</dim>
					<dim>26</dim>
					<dim>26</dim>
					<dim>3</dim>
					<dim>1</dim>
				</port>
			</output>
		</layer>
		<layer id="471" name="TFNodes/yolo_evaluation_layer_1/Sigmoid_5" type="Sigmoid" version="opset1">
			<input>
				<port id="0" precision="FP16">
					<dim>1</dim>
					<dim>26</dim>
					<dim>26</dim>
					<dim>3</dim>
					<dim>80</dim>
				</port>
			</input>
			<output>
				<port id="1" names="TFNodes/yolo_evaluation_layer_1/Sigmoid_5:0" precision="FP16">
					<dim>1</dim>
					<dim>26</dim>
					<dim>26</dim>
					<dim>3</dim>
					<dim>80</dim>
				</port>
			</output>
		</layer>
		<layer id="472" name="TFNodes/yolo_evaluation_layer_1/mul_12" type="Multiply" version="opset1">
			<data auto_broadcast="numpy"/>
			<input>
				<port id="0" precision="FP16">
					<dim>1</dim>
					<dim>26</dim>
					<dim>26</dim>
					<dim>3</dim>
					<dim>1</dim>
				</port>
				<port id="1" precision="FP16">
					<dim>1</dim>
					<dim>26</dim>
					<dim>26</dim>
					<dim>3</dim>
					<dim>80</dim>
				</port>
			</input>
			<output>
				<port id="2" names="TFNodes/yolo_evaluation_layer_1/mul_12:0" precision="FP16">
					<dim>1</dim>
					<dim>26</dim>
					<dim>26</dim>
					<dim>3</dim>
					<dim>80</dim>
				</port>
			</output>
		</layer>
		<layer id="473" name="TFNodes/yolo_evaluation_layer_1/Reshape_11__95" type="Const" version="opset1">
			<data element_type="i64" offset="17698845" shape="2" size="16"/>
			<output>
				<port id="0" names="TFNodes/yolo_evaluation_layer_1/Reshape_11__95:0" precision="I64">
					<dim>2</dim>
				</port>
			</output>
		</layer>
		<layer id="474" name="TFNodes/yolo_evaluation_layer_1/Reshape_11" type="Reshape" version="opset1">
			<data special_zero="true"/>
			<input>
				<port id="0" precision="FP16">
					<dim>1</dim>
					<dim>26</dim>
					<dim>26</dim>
					<dim>3</dim>
					<dim>80</dim>
				</port>
				<port id="1" precision="I64">
					<dim>2</dim>
				</port>
			</input>
			<output>
				<port id="2" names="TFNodes/yolo_evaluation_layer_1/Reshape_11:0" precision="FP16">
					<dim>2028</dim>
					<dim>80</dim>
				</port>
			</output>
		</layer>
		<layer id="475" name="TFNodes/yolo_evaluation_layer_1/concat_7" type="Concat" version="opset1">
			<data axis="0"/>
			<input>
				<port id="0" precision="FP16">
					<dim>507</dim>
					<dim>80</dim>
				</port>
				<port id="1" precision="FP16">
					<dim>2028</dim>
					<dim>80</dim>
				</port>
			</input>
			<output>
				<port id="2" names="TFNodes/yolo_evaluation_layer_1/concat_7:0" precision="FP16">
					<dim>2535</dim>
					<dim>80</dim>
				</port>
			</output>
		</layer>
		<layer id="476" name="557" type="Const" version="opset1">
			<data element_type="i64" offset="17698861" shape="2" size="16"/>
			<output>
				<port id="0" precision="I64">
					<dim>2</dim>
				</port>
			</output>
		</layer>
		<layer id="477" name="Transpose" type="Transpose" version="opset1">
			<input>
				<port id="0" precision="FP16">
					<dim>2535</dim>
					<dim>80</dim>
				</port>
				<port id="1" precision="I64">
					<dim>2</dim>
				</port>
			</input>
			<output>
				<port id="2" names="yolo_evaluation_layer_1/concat_7:0_tx" precision="FP16">
					<dim>80</dim>
					<dim>2535</dim>
				</port>
			</output>
		</layer>
		<layer id="478" name="yolo_evaluation_layer_1/concat_7:0_btc/Dims" type="Const" version="opset1">
			<data element_type="i64" offset="15731574" shape="1" size="8"/>
			<output>
				<port id="0" precision="I64">
					<dim>1</dim>
				</port>
			</output>
		</layer>
		<layer id="479" name="yolonms_layer_1:1" type="Unsqueeze" version="opset1">
			<input>
				<port id="0" precision="FP16">
					<dim>80</dim>
					<dim>2535</dim>
				</port>
				<port id="1" precision="I64">
					<dim>1</dim>
				</port>
			</input>
			<output>
				<port id="2" names="yolo_evaluation_layer_1/concat_7:0_btc,yolonms_layer_1:1" precision="FP16">
					<dim>1</dim>
					<dim>80</dim>
					<dim>2535</dim>
				</port>
			</output>
		</layer>
		<layer id="480" name="yolonms_layer_1/non_max_suppression/NonMaxSuppressionV3/Reshape_1D_2" type="Const" version="opset1">
			<data element_type="i64" offset="17698877" shape="1" size="8"/>
			<output>
				<port id="0" names="max_output_size" precision="I64">
					<dim>1</dim>
				</port>
			</output>
		</layer>
		<layer id="481" name="yolonms_layer_1/non_max_suppression/NonMaxSuppressionV3/Reshape_1D_3" type="Const" version="opset1">
			<data element_type="f16" offset="15731925" shape="1" size="2"/>
			<output>
				<port id="0" names="iou_threshold" precision="FP16">
					<dim>1</dim>
				</port>
			</output>
		</layer>
		<layer id="482" name="yolonms_layer_1/non_max_suppression/NonMaxSuppressionV3/Reshape_1D_4" type="Const" version="opset1">
			<data element_type="f16" offset="17698885" shape="1" size="2"/>
			<output>
				<port id="0" names="layer.score_threshold" precision="FP16">
					<dim>1</dim>
				</port>
			</output>
		</layer>
		<layer id="483" name="yolonms_layer_1/non_max_suppression/NonMaxSuppressionV3" type="NonMaxSuppression" version="opset5">
			<data box_encoding="corner" output_type="i64" sort_result_descending="false"/>
			<input>
				<port id="0" precision="FP16">
					<dim>1</dim>
					<dim>2535</dim>
					<dim>4</dim>
				</port>
				<port id="1" precision="FP16">
					<dim>1</dim>
					<dim>80</dim>
					<dim>2535</dim>
				</port>
				<port id="2" precision="I64">
					<dim>1</dim>
				</port>
				<port id="3" precision="FP16">
					<dim>1</dim>
				</port>
				<port id="4" precision="FP16">
					<dim>1</dim>
				</port>
			</input>
			<output>
				<port id="5" names="casted" precision="I64">
					<dim>1600</dim>
					<dim>3</dim>
				</port>
				<port id="6" precision="FP32">
					<dim>1600</dim>
					<dim>3</dim>
				</port>
				<port id="7" precision="I64">
					<dim>1</dim>
				</port>
			</output>
		</layer>
		<layer id="484" name="yolonms_layer_1/ExpandDims_5:01_btc/Dims" type="Const" version="opset1">
			<data element_type="i64" offset="15731574" shape="1" size="8"/>
			<output>
				<port id="0" precision="I64">
					<dim>1</dim>
				</port>
			</output>
		</layer>
		<layer id="485" name="yolonms_layer_1/ExpandDims_5:01_btc/Unsqueeze" type="Unsqueeze" version="opset1">
			<input>
				<port id="0" precision="I64">
					<dim>1600</dim>
					<dim>3</dim>
				</port>
				<port id="1" precision="I64">
					<dim>1</dim>
				</port>
			</input>
			<output>
				<port id="2" names="yolonms_layer_1/ExpandDims_5:01_btc" precision="I64">
					<dim>1</dim>
					<dim>1600</dim>
					<dim>3</dim>
				</port>
			</output>
		</layer>
		<layer id="486" name="yolonms_layer_1:2" type="Convert" version="opset1">
			<data destination_type="i32"/>
			<input>
				<port id="0" precision="I64">
					<dim>1</dim>
					<dim>1600</dim>
					<dim>3</dim>
				</port>
			</input>
			<output>
				<port id="1" names="yolonms_layer_1/ExpandDims_5:01,yolonms_layer_1:2" precision="I32">
					<dim>1</dim>
					<dim>1600</dim>
					<dim>3</dim>
				</port>
			</output>
		</layer>
		<layer id="487" name="yolonms_layer_1/ExpandDims_5:01" type="Result" version="opset1">
			<input>
				<port id="0" precision="I32">
					<dim>1</dim>
					<dim>1600</dim>
					<dim>3</dim>
				</port>
			</input>
		</layer>
		<layer id="488" name="yolo_evaluation_layer_1/concat_7:0_btc" type="Result" version="opset1">
			<input>
				<port id="0" precision="FP16">
					<dim>1</dim>
					<dim>80</dim>
					<dim>2535</dim>
				</port>
			</input>
		</layer>
		<layer id="489" name="yolo_evaluation_layer_1/concat_6:0_btc" type="Result" version="opset1">
			<input>
				<port id="0" precision="FP16">
					<dim>1</dim>
					<dim>2535</dim>
					<dim>4</dim>
				</port>
			</input>
		</layer>
	</layers>
	<edges>
		<edge from-layer="0" from-port="0" to-layer="184" to-port="0"/>
		<edge from-layer="1" from-port="0" to-layer="3" to-port="0"/>
		<edge from-layer="2" from-port="0" to-layer="3" to-port="1"/>
		<edge from-layer="3" from-port="2" to-layer="5" to-port="0"/>
		<edge from-layer="4" from-port="0" to-layer="5" to-port="1"/>
		<edge from-layer="5" from-port="2" to-layer="7" to-port="0"/>
		<edge from-layer="6" from-port="0" to-layer="7" to-port="1"/>
		<edge from-layer="7" from-port="2" to-layer="8" to-port="0"/>
		<edge from-layer="8" from-port="1" to-layer="10" to-port="0"/>
		<edge from-layer="9" from-port="0" to-layer="10" to-port="1"/>
		<edge from-layer="10" from-port="2" to-layer="12" to-port="0"/>
		<edge from-layer="11" from-port="0" to-layer="12" to-port="1"/>
		<edge from-layer="12" from-port="2" to-layer="14" to-port="0"/>
		<edge from-layer="13" from-port="0" to-layer="14" to-port="1"/>
		<edge from-layer="14" from-port="2" to-layer="15" to-port="0"/>
		<edge from-layer="15" from-port="1" to-layer="17" to-port="0"/>
		<edge from-layer="16" from-port="0" to-layer="17" to-port="1"/>
		<edge from-layer="17" from-port="2" to-layer="19" to-port="0"/>
		<edge from-layer="18" from-port="0" to-layer="19" to-port="1"/>
		<edge from-layer="19" from-port="2" to-layer="21" to-port="0"/>
		<edge from-layer="20" from-port="0" to-layer="21" to-port="1"/>
		<edge from-layer="21" from-port="2" to-layer="22" to-port="0"/>
		<edge from-layer="22" from-port="1" to-layer="24" to-port="0"/>
		<edge from-layer="23" from-port="0" to-layer="24" to-port="1"/>
		<edge from-layer="24" from-port="2" to-layer="26" to-port="0"/>
		<edge from-layer="25" from-port="0" to-layer="26" to-port="1"/>
		<edge from-layer="26" from-port="2" to-layer="28" to-port="0"/>
		<edge from-layer="27" from-port="0" to-layer="28" to-port="1"/>
		<edge from-layer="28" from-port="2" to-layer="29" to-port="0"/>
		<edge from-layer="29" from-port="1" to-layer="31" to-port="0"/>
		<edge from-layer="30" from-port="0" to-layer="31" to-port="1"/>
		<edge from-layer="31" from-port="2" to-layer="33" to-port="0"/>
		<edge from-layer="32" from-port="0" to-layer="33" to-port="1"/>
		<edge from-layer="33" from-port="2" to-layer="35" to-port="0"/>
		<edge from-layer="34" from-port="0" to-layer="35" to-port="1"/>
		<edge from-layer="35" from-port="2" to-layer="274" to-port="1"/>
		<edge from-layer="35" from-port="2" to-layer="36" to-port="0"/>
		<edge from-layer="36" from-port="1" to-layer="38" to-port="0"/>
		<edge from-layer="37" from-port="0" to-layer="38" to-port="1"/>
		<edge from-layer="38" from-port="2" to-layer="40" to-port="0"/>
		<edge from-layer="39" from-port="0" to-layer="40" to-port="1"/>
		<edge from-layer="40" from-port="2" to-layer="42" to-port="0"/>
		<edge from-layer="41" from-port="0" to-layer="42" to-port="1"/>
		<edge from-layer="42" from-port="2" to-layer="43" to-port="0"/>
		<edge from-layer="43" from-port="1" to-layer="45" to-port="0"/>
		<edge from-layer="44" from-port="0" to-layer="45" to-port="1"/>
		<edge from-layer="45" from-port="2" to-layer="47" to-port="0"/>
		<edge from-layer="46" from-port="0" to-layer="47" to-port="1"/>
		<edge from-layer="47" from-port="2" to-layer="49" to-port="0"/>
		<edge from-layer="48" from-port="0" to-layer="49" to-port="1"/>
		<edge from-layer="49" from-port="2" to-layer="51" to-port="0"/>
		<edge from-layer="50" from-port="0" to-layer="51" to-port="1"/>
		<edge from-layer="51" from-port="2" to-layer="53" to-port="0"/>
		<edge from-layer="52" from-port="0" to-layer="53" to-port="1"/>
		<edge from-layer="53" from-port="2" to-layer="55" to-port="0"/>
		<edge from-layer="54" from-port="0" to-layer="55" to-port="1"/>
		<edge from-layer="55" from-port="2" to-layer="57" to-port="0"/>
		<edge from-layer="55" from-port="2" to-layer="254" to-port="0"/>
		<edge from-layer="56" from-port="0" to-layer="57" to-port="1"/>
		<edge from-layer="57" from-port="2" to-layer="59" to-port="0"/>
		<edge from-layer="58" from-port="0" to-layer="59" to-port="1"/>
		<edge from-layer="59" from-port="2" to-layer="61" to-port="0"/>
		<edge from-layer="60" from-port="0" to-layer="61" to-port="1"/>
		<edge from-layer="61" from-port="2" to-layer="63" to-port="0"/>
		<edge from-layer="62" from-port="0" to-layer="63" to-port="1"/>
		<edge from-layer="63" from-port="2" to-layer="65" to-port="0"/>
		<edge from-layer="64" from-port="0" to-layer="65" to-port="1"/>
		<edge from-layer="65" from-port="2" to-layer="67" to-port="0"/>
		<edge from-layer="66" from-port="0" to-layer="67" to-port="1"/>
		<edge from-layer="67" from-port="2" to-layer="69" to-port="0"/>
		<edge from-layer="67" from-port="2" to-layer="95" to-port="0"/>
		<edge from-layer="67" from-port="2" to-layer="185" to-port="0"/>
		<edge from-layer="68" from-port="0" to-layer="93" to-port="0"/>
		<edge from-layer="69" from-port="1" to-layer="70" to-port="0"/>
		<edge from-layer="70" from-port="1" to-layer="74" to-port="0"/>
		<edge from-layer="71" from-port="0" to-layer="74" to-port="1"/>
		<edge from-layer="72" from-port="0" to-layer="74" to-port="2"/>
		<edge from-layer="73" from-port="0" to-layer="74" to-port="3"/>
		<edge from-layer="74" from-port="4" to-layer="154" to-port="0"/>
		<edge from-layer="74" from-port="4" to-layer="135" to-port="0"/>
		<edge from-layer="74" from-port="4" to-layer="121" to-port="0"/>
		<edge from-layer="74" from-port="4" to-layer="172" to-port="0"/>
		<edge from-layer="74" from-port="4" to-layer="103" to-port="0"/>
		<edge from-layer="74" from-port="4" to-layer="86" to-port="0"/>
		<edge from-layer="74" from-port="4" to-layer="78" to-port="0"/>
		<edge from-layer="75" from-port="0" to-layer="78" to-port="1"/>
		<edge from-layer="76" from-port="0" to-layer="78" to-port="2"/>
		<edge from-layer="77" from-port="0" to-layer="78" to-port="3"/>
		<edge from-layer="78" from-port="4" to-layer="80" to-port="0"/>
		<edge from-layer="79" from-port="0" to-layer="80" to-port="1"/>
		<edge from-layer="80" from-port="2" to-layer="82" to-port="0"/>
		<edge from-layer="81" from-port="0" to-layer="82" to-port="1"/>
		<edge from-layer="82" from-port="2" to-layer="93" to-port="1"/>
		<edge from-layer="83" from-port="0" to-layer="86" to-port="1"/>
		<edge from-layer="84" from-port="0" to-layer="86" to-port="2"/>
		<edge from-layer="85" from-port="0" to-layer="86" to-port="3"/>
		<edge from-layer="86" from-port="4" to-layer="88" to-port="0"/>
		<edge from-layer="87" from-port="0" to-layer="88" to-port="1"/>
		<edge from-layer="88" from-port="2" to-layer="90" to-port="0"/>
		<edge from-layer="89" from-port="0" to-layer="90" to-port="1"/>
		<edge from-layer="90" from-port="2" to-layer="93" to-port="2"/>
		<edge from-layer="91" from-port="0" to-layer="93" to-port="3"/>
		<edge from-layer="92" from-port="0" to-layer="93" to-port="4"/>
		<edge from-layer="93" from-port="5" to-layer="94" to-port="0"/>
		<edge from-layer="94" from-port="1" to-layer="95" to-port="1"/>
		<edge from-layer="95" from-port="2" to-layer="98" to-port="0"/>
		<edge from-layer="96" from-port="0" to-layer="98" to-port="1"/>
		<edge from-layer="97" from-port="0" to-layer="98" to-port="2"/>
		<edge from-layer="98" from-port="5" to-layer="465" to-port="0"/>
		<edge from-layer="98" from-port="6" to-layer="466" to-port="0"/>
		<edge from-layer="98" from-port="4" to-layer="216" to-port="0"/>
		<edge from-layer="98" from-port="3" to-layer="99" to-port="0"/>
		<edge from-layer="99" from-port="1" to-layer="168" to-port="0"/>
		<edge from-layer="100" from-port="0" to-layer="103" to-port="1"/>
		<edge from-layer="101" from-port="0" to-layer="103" to-port="2"/>
		<edge from-layer="102" from-port="0" to-layer="103" to-port="3"/>
		<edge from-layer="103" from-port="4" to-layer="105" to-port="0"/>
		<edge from-layer="104" from-port="0" to-layer="105" to-port="1"/>
		<edge from-layer="105" from-port="2" to-layer="107" to-port="0"/>
		<edge from-layer="106" from-port="0" to-layer="107" to-port="1"/>
		<edge from-layer="107" from-port="2" to-layer="108" to-port="0"/>
		<edge from-layer="108" from-port="1" to-layer="110" to-port="0"/>
		<edge from-layer="109" from-port="0" to-layer="110" to-port="1"/>
		<edge from-layer="110" from-port="2" to-layer="111" to-port="0"/>
		<edge from-layer="111" from-port="1" to-layer="112" to-port="0"/>
		<edge from-layer="112" from-port="1" to-layer="115" to-port="0"/>
		<edge from-layer="113" from-port="0" to-layer="115" to-port="1"/>
		<edge from-layer="114" from-port="0" to-layer="115" to-port="2"/>
		<edge from-layer="115" from-port="3" to-layer="117" to-port="0"/>
		<edge from-layer="116" from-port="0" to-layer="117" to-port="1"/>
		<edge from-layer="117" from-port="2" to-layer="131" to-port="0"/>
		<edge from-layer="118" from-port="0" to-layer="121" to-port="1"/>
		<edge from-layer="119" from-port="0" to-layer="121" to-port="2"/>
		<edge from-layer="120" from-port="0" to-layer="121" to-port="3"/>
		<edge from-layer="121" from-port="4" to-layer="123" to-port="0"/>
		<edge from-layer="122" from-port="0" to-layer="123" to-port="1"/>
		<edge from-layer="123" from-port="2" to-layer="125" to-port="0"/>
		<edge from-layer="124" from-port="0" to-layer="125" to-port="1"/>
		<edge from-layer="125" from-port="2" to-layer="129" to-port="0"/>
		<edge from-layer="126" from-port="0" to-layer="129" to-port="1"/>
		<edge from-layer="127" from-port="0" to-layer="129" to-port="2"/>
		<edge from-layer="128" from-port="0" to-layer="129" to-port="3"/>
		<edge from-layer="129" from-port="4" to-layer="130" to-port="0"/>
		<edge from-layer="130" from-port="1" to-layer="131" to-port="1"/>
		<edge from-layer="131" from-port="2" to-layer="164" to-port="0"/>
		<edge from-layer="132" from-port="0" to-layer="135" to-port="1"/>
		<edge from-layer="133" from-port="0" to-layer="135" to-port="2"/>
		<edge from-layer="134" from-port="0" to-layer="135" to-port="3"/>
		<edge from-layer="135" from-port="4" to-layer="137" to-port="0"/>
		<edge from-layer="136" from-port="0" to-layer="137" to-port="1"/>
		<edge from-layer="137" from-port="2" to-layer="139" to-port="0"/>
		<edge from-layer="138" from-port="0" to-layer="139" to-port="1"/>
		<edge from-layer="139" from-port="2" to-layer="140" to-port="0"/>
		<edge from-layer="140" from-port="1" to-layer="142" to-port="0"/>
		<edge from-layer="141" from-port="0" to-layer="142" to-port="1"/>
		<edge from-layer="142" from-port="2" to-layer="143" to-port="0"/>
		<edge from-layer="143" from-port="1" to-layer="144" to-port="0"/>
		<edge from-layer="144" from-port="1" to-layer="147" to-port="0"/>
		<edge from-layer="145" from-port="0" to-layer="147" to-port="1"/>
		<edge from-layer="146" from-port="0" to-layer="147" to-port="2"/>
		<edge from-layer="147" from-port="3" to-layer="149" to-port="0"/>
		<edge from-layer="148" from-port="0" to-layer="149" to-port="1"/>
		<edge from-layer="149" from-port="2" to-layer="163" to-port="0"/>
		<edge from-layer="150" from-port="0" to-layer="161" to-port="0"/>
		<edge from-layer="151" from-port="0" to-layer="154" to-port="1"/>
		<edge from-layer="152" from-port="0" to-layer="154" to-port="2"/>
		<edge from-layer="153" from-port="0" to-layer="154" to-port="3"/>
		<edge from-layer="154" from-port="4" to-layer="156" to-port="0"/>
		<edge from-layer="155" from-port="0" to-layer="156" to-port="1"/>
		<edge from-layer="156" from-port="2" to-layer="158" to-port="0"/>
		<edge from-layer="157" from-port="0" to-layer="158" to-port="1"/>
		<edge from-layer="158" from-port="2" to-layer="161" to-port="1"/>
		<edge from-layer="159" from-port="0" to-layer="161" to-port="2"/>
		<edge from-layer="160" from-port="0" to-layer="161" to-port="3"/>
		<edge from-layer="161" from-port="4" to-layer="162" to-port="0"/>
		<edge from-layer="162" from-port="1" to-layer="163" to-port="1"/>
		<edge from-layer="163" from-port="2" to-layer="164" to-port="1"/>
		<edge from-layer="164" from-port="2" to-layer="165" to-port="0"/>
		<edge from-layer="165" from-port="1" to-layer="167" to-port="0"/>
		<edge from-layer="166" from-port="0" to-layer="167" to-port="1"/>
		<edge from-layer="167" from-port="2" to-layer="168" to-port="1"/>
		<edge from-layer="168" from-port="2" to-layer="178" to-port="0"/>
		<edge from-layer="169" from-port="0" to-layer="172" to-port="1"/>
		<edge from-layer="170" from-port="0" to-layer="172" to-port="2"/>
		<edge from-layer="171" from-port="0" to-layer="172" to-port="3"/>
		<edge from-layer="172" from-port="4" to-layer="173" to-port="0"/>
		<edge from-layer="173" from-port="1" to-layer="175" to-port="0"/>
		<edge from-layer="174" from-port="0" to-layer="175" to-port="1"/>
		<edge from-layer="175" from-port="2" to-layer="177" to-port="0"/>
		<edge from-layer="176" from-port="0" to-layer="177" to-port="1"/>
		<edge from-layer="177" from-port="2" to-layer="178" to-port="1"/>
		<edge from-layer="178" from-port="2" to-layer="182" to-port="0"/>
		<edge from-layer="179" from-port="0" to-layer="182" to-port="1"/>
		<edge from-layer="180" from-port="0" to-layer="182" to-port="2"/>
		<edge from-layer="181" from-port="0" to-layer="182" to-port="3"/>
		<edge from-layer="182" from-port="4" to-layer="209" to-port="0"/>
		<edge from-layer="183" from-port="0" to-layer="184" to-port="1"/>
		<edge from-layer="184" from-port="2" to-layer="247" to-port="1"/>
		<edge from-layer="184" from-port="2" to-layer="456" to-port="1"/>
		<edge from-layer="184" from-port="2" to-layer="456" to-port="0"/>
		<edge from-layer="184" from-port="2" to-layer="410" to-port="0"/>
		<edge from-layer="184" from-port="2" to-layer="404" to-port="0"/>
		<edge from-layer="184" from-port="2" to-layer="247" to-port="0"/>
		<edge from-layer="184" from-port="2" to-layer="201" to-port="0"/>
		<edge from-layer="184" from-port="2" to-layer="195" to-port="0"/>
		<edge from-layer="185" from-port="1" to-layer="186" to-port="0"/>
		<edge from-layer="186" from-port="1" to-layer="190" to-port="0"/>
		<edge from-layer="187" from-port="0" to-layer="190" to-port="1"/>
		<edge from-layer="188" from-port="0" to-layer="190" to-port="2"/>
		<edge from-layer="189" from-port="0" to-layer="190" to-port="3"/>
		<edge from-layer="190" from-port="4" to-layer="192" to-port="0"/>
		<edge from-layer="191" from-port="0" to-layer="192" to-port="1"/>
		<edge from-layer="192" from-port="2" to-layer="431" to-port="0"/>
		<edge from-layer="192" from-port="2" to-layer="222" to-port="0"/>
		<edge from-layer="192" from-port="2" to-layer="193" to-port="0"/>
		<edge from-layer="192" from-port="2" to-layer="402" to-port="0"/>
		<edge from-layer="193" from-port="1" to-layer="212" to-port="0"/>
		<edge from-layer="193" from-port="1" to-layer="196" to-port="0"/>
		<edge from-layer="194" from-port="0" to-layer="195" to-port="1"/>
		<edge from-layer="195" from-port="2" to-layer="196" to-port="1"/>
		<edge from-layer="196" from-port="2" to-layer="198" to-port="0"/>
		<edge from-layer="197" from-port="0" to-layer="198" to-port="1"/>
		<edge from-layer="198" from-port="2" to-layer="200" to-port="0"/>
		<edge from-layer="199" from-port="0" to-layer="200" to-port="1"/>
		<edge from-layer="200" from-port="2" to-layer="201" to-port="1"/>
		<edge from-layer="201" from-port="2" to-layer="202" to-port="0"/>
		<edge from-layer="202" from-port="1" to-layer="211" to-port="0"/>
		<edge from-layer="202" from-port="1" to-layer="204" to-port="0"/>
		<edge from-layer="203" from-port="0" to-layer="204" to-port="1"/>
		<edge from-layer="204" from-port="2" to-layer="206" to-port="0"/>
		<edge from-layer="205" from-port="0" to-layer="206" to-port="1"/>
		<edge from-layer="206" from-port="2" to-layer="208" to-port="0"/>
		<edge from-layer="207" from-port="0" to-layer="208" to-port="1"/>
		<edge from-layer="208" from-port="2" to-layer="209" to-port="1"/>
		<edge from-layer="209" from-port="2" to-layer="215" to-port="0"/>
		<edge from-layer="210" from-port="0" to-layer="211" to-port="1"/>
		<edge from-layer="211" from-port="2" to-layer="212" to-port="1"/>
		<edge from-layer="212" from-port="2" to-layer="214" to-port="0"/>
		<edge from-layer="213" from-port="0" to-layer="214" to-port="1"/>
		<edge from-layer="214" from-port="2" to-layer="215" to-port="1"/>
		<edge from-layer="214" from-port="2" to-layer="233" to-port="1"/>
		<edge from-layer="215" from-port="2" to-layer="242" to-port="0"/>
		<edge from-layer="215" from-port="2" to-layer="236" to-port="0"/>
		<edge from-layer="216" from-port="1" to-layer="218" to-port="0"/>
		<edge from-layer="217" from-port="0" to-layer="218" to-port="1"/>
		<edge from-layer="218" from-port="2" to-layer="228" to-port="0"/>
		<edge from-layer="219" from-port="0" to-layer="222" to-port="1"/>
		<edge from-layer="220" from-port="0" to-layer="222" to-port="2"/>
		<edge from-layer="221" from-port="0" to-layer="222" to-port="3"/>
		<edge from-layer="222" from-port="4" to-layer="223" to-port="0"/>
		<edge from-layer="223" from-port="1" to-layer="225" to-port="0"/>
		<edge from-layer="224" from-port="0" to-layer="225" to-port="1"/>
		<edge from-layer="225" from-port="2" to-layer="227" to-port="0"/>
		<edge from-layer="226" from-port="0" to-layer="227" to-port="1"/>
		<edge from-layer="227" from-port="2" to-layer="228" to-port="1"/>
		<edge from-layer="228" from-port="2" to-layer="232" to-port="0"/>
		<edge from-layer="229" from-port="0" to-layer="232" to-port="1"/>
		<edge from-layer="230" from-port="0" to-layer="232" to-port="2"/>
		<edge from-layer="231" from-port="0" to-layer="232" to-port="3"/>
		<edge from-layer="232" from-port="4" to-layer="233" to-port="0"/>
		<edge from-layer="233" from-port="2" to-layer="241" to-port="0"/>
		<edge from-layer="233" from-port="2" to-layer="235" to-port="0"/>
		<edge from-layer="234" from-port="0" to-layer="235" to-port="1"/>
		<edge from-layer="235" from-port="2" to-layer="236" to-port="1"/>
		<edge from-layer="236" from-port="2" to-layer="239" to-port="0"/>
		<edge from-layer="237" from-port="0" to-layer="239" to-port="1"/>
		<edge from-layer="238" from-port="0" to-layer="239" to-port="2"/>
		<edge from-layer="239" from-port="3" to-layer="246" to-port="0"/>
		<edge from-layer="239" from-port="4" to-layer="246" to-port="1"/>
		<edge from-layer="240" from-port="0" to-layer="241" to-port="1"/>
		<edge from-layer="241" from-port="2" to-layer="242" to-port="1"/>
		<edge from-layer="242" from-port="2" to-layer="245" to-port="0"/>
		<edge from-layer="243" from-port="0" to-layer="245" to-port="1"/>
		<edge from-layer="244" from-port="0" to-layer="245" to-port="2"/>
		<edge from-layer="245" from-port="4" to-layer="246" to-port="3"/>
		<edge from-layer="245" from-port="3" to-layer="246" to-port="2"/>
		<edge from-layer="246" from-port="4" to-layer="250" to-port="0"/>
		<edge from-layer="247" from-port="2" to-layer="249" to-port="0"/>
		<edge from-layer="248" from-port="0" to-layer="249" to-port="1"/>
		<edge from-layer="249" from-port="2" to-layer="250" to-port="1"/>
		<edge from-layer="250" from-port="2" to-layer="252" to-port="0"/>
		<edge from-layer="251" from-port="0" to-layer="252" to-port="1"/>
		<edge from-layer="252" from-port="2" to-layer="462" to-port="0"/>
		<edge from-layer="253" from-port="0" to-layer="254" to-port="1"/>
		<edge from-layer="254" from-port="2" to-layer="256" to-port="0"/>
		<edge from-layer="255" from-port="0" to-layer="256" to-port="1"/>
		<edge from-layer="256" from-port="2" to-layer="258" to-port="0"/>
		<edge from-layer="257" from-port="0" to-layer="258" to-port="1"/>
		<edge from-layer="258" from-port="2" to-layer="259" to-port="0"/>
		<edge from-layer="258" from-port="2" to-layer="273" to-port="0"/>
		<edge from-layer="259" from-port="1" to-layer="260" to-port="0"/>
		<edge from-layer="260" from-port="1" to-layer="262" to-port="0"/>
		<edge from-layer="261" from-port="0" to-layer="262" to-port="1"/>
		<edge from-layer="262" from-port="2" to-layer="264" to-port="0"/>
		<edge from-layer="263" from-port="0" to-layer="264" to-port="1"/>
		<edge from-layer="264" from-port="2" to-layer="265" to-port="0"/>
		<edge from-layer="265" from-port="1" to-layer="266" to-port="0"/>
		<edge from-layer="266" from-port="1" to-layer="270" to-port="0"/>
		<edge from-layer="267" from-port="0" to-layer="270" to-port="1"/>
		<edge from-layer="268" from-port="0" to-layer="270" to-port="2"/>
		<edge from-layer="269" from-port="0" to-layer="270" to-port="3"/>
		<edge from-layer="270" from-port="4" to-layer="273" to-port="1"/>
		<edge from-layer="271" from-port="0" to-layer="273" to-port="2"/>
		<edge from-layer="272" from-port="0" to-layer="273" to-port="3"/>
		<edge from-layer="273" from-port="4" to-layer="274" to-port="0"/>
		<edge from-layer="274" from-port="2" to-layer="276" to-port="0"/>
		<edge from-layer="275" from-port="0" to-layer="276" to-port="1"/>
		<edge from-layer="276" from-port="2" to-layer="278" to-port="0"/>
		<edge from-layer="277" from-port="0" to-layer="278" to-port="1"/>
		<edge from-layer="278" from-port="2" to-layer="280" to-port="0"/>
		<edge from-layer="279" from-port="0" to-layer="280" to-port="1"/>
		<edge from-layer="280" from-port="2" to-layer="282" to-port="0"/>
		<edge from-layer="281" from-port="0" to-layer="282" to-port="1"/>
		<edge from-layer="282" from-port="2" to-layer="284" to-port="0"/>
		<edge from-layer="283" from-port="0" to-layer="284" to-port="1"/>
		<edge from-layer="284" from-port="2" to-layer="286" to-port="0"/>
		<edge from-layer="285" from-port="0" to-layer="286" to-port="1"/>
		<edge from-layer="286" from-port="2" to-layer="314" to-port="0"/>
		<edge from-layer="286" from-port="2" to-layer="288" to-port="0"/>
		<edge from-layer="287" from-port="0" to-layer="312" to-port="0"/>
		<edge from-layer="288" from-port="1" to-layer="289" to-port="0"/>
		<edge from-layer="289" from-port="1" to-layer="293" to-port="0"/>
		<edge from-layer="290" from-port="0" to-layer="293" to-port="1"/>
		<edge from-layer="291" from-port="0" to-layer="293" to-port="2"/>
		<edge from-layer="292" from-port="0" to-layer="293" to-port="3"/>
		<edge from-layer="293" from-port="4" to-layer="391" to-port="0"/>
		<edge from-layer="293" from-port="4" to-layer="373" to-port="0"/>
		<edge from-layer="293" from-port="4" to-layer="340" to-port="0"/>
		<edge from-layer="293" from-port="4" to-layer="322" to-port="0"/>
		<edge from-layer="293" from-port="4" to-layer="354" to-port="0"/>
		<edge from-layer="293" from-port="4" to-layer="297" to-port="0"/>
		<edge from-layer="293" from-port="4" to-layer="305" to-port="0"/>
		<edge from-layer="294" from-port="0" to-layer="297" to-port="1"/>
		<edge from-layer="295" from-port="0" to-layer="297" to-port="2"/>
		<edge from-layer="296" from-port="0" to-layer="297" to-port="3"/>
		<edge from-layer="297" from-port="4" to-layer="299" to-port="0"/>
		<edge from-layer="298" from-port="0" to-layer="299" to-port="1"/>
		<edge from-layer="299" from-port="2" to-layer="301" to-port="0"/>
		<edge from-layer="300" from-port="0" to-layer="301" to-port="1"/>
		<edge from-layer="301" from-port="2" to-layer="312" to-port="1"/>
		<edge from-layer="302" from-port="0" to-layer="305" to-port="1"/>
		<edge from-layer="303" from-port="0" to-layer="305" to-port="2"/>
		<edge from-layer="304" from-port="0" to-layer="305" to-port="3"/>
		<edge from-layer="305" from-port="4" to-layer="307" to-port="0"/>
		<edge from-layer="306" from-port="0" to-layer="307" to-port="1"/>
		<edge from-layer="307" from-port="2" to-layer="309" to-port="0"/>
		<edge from-layer="308" from-port="0" to-layer="309" to-port="1"/>
		<edge from-layer="309" from-port="2" to-layer="312" to-port="2"/>
		<edge from-layer="310" from-port="0" to-layer="312" to-port="3"/>
		<edge from-layer="311" from-port="0" to-layer="312" to-port="4"/>
		<edge from-layer="312" from-port="5" to-layer="313" to-port="0"/>
		<edge from-layer="313" from-port="1" to-layer="314" to-port="1"/>
		<edge from-layer="314" from-port="2" to-layer="317" to-port="0"/>
		<edge from-layer="315" from-port="0" to-layer="317" to-port="1"/>
		<edge from-layer="316" from-port="0" to-layer="317" to-port="2"/>
		<edge from-layer="317" from-port="4" to-layer="425" to-port="0"/>
		<edge from-layer="317" from-port="5" to-layer="470" to-port="0"/>
		<edge from-layer="317" from-port="6" to-layer="471" to-port="0"/>
		<edge from-layer="317" from-port="3" to-layer="318" to-port="0"/>
		<edge from-layer="318" from-port="1" to-layer="387" to-port="0"/>
		<edge from-layer="319" from-port="0" to-layer="322" to-port="1"/>
		<edge from-layer="320" from-port="0" to-layer="322" to-port="2"/>
		<edge from-layer="321" from-port="0" to-layer="322" to-port="3"/>
		<edge from-layer="322" from-port="4" to-layer="324" to-port="0"/>
		<edge from-layer="323" from-port="0" to-layer="324" to-port="1"/>
		<edge from-layer="324" from-port="2" to-layer="326" to-port="0"/>
		<edge from-layer="325" from-port="0" to-layer="326" to-port="1"/>
		<edge from-layer="326" from-port="2" to-layer="327" to-port="0"/>
		<edge from-layer="327" from-port="1" to-layer="329" to-port="0"/>
		<edge from-layer="328" from-port="0" to-layer="329" to-port="1"/>
		<edge from-layer="329" from-port="2" to-layer="330" to-port="0"/>
		<edge from-layer="330" from-port="1" to-layer="331" to-port="0"/>
		<edge from-layer="331" from-port="1" to-layer="334" to-port="0"/>
		<edge from-layer="332" from-port="0" to-layer="334" to-port="1"/>
		<edge from-layer="333" from-port="0" to-layer="334" to-port="2"/>
		<edge from-layer="334" from-port="3" to-layer="336" to-port="0"/>
		<edge from-layer="335" from-port="0" to-layer="336" to-port="1"/>
		<edge from-layer="336" from-port="2" to-layer="350" to-port="0"/>
		<edge from-layer="337" from-port="0" to-layer="340" to-port="1"/>
		<edge from-layer="338" from-port="0" to-layer="340" to-port="2"/>
		<edge from-layer="339" from-port="0" to-layer="340" to-port="3"/>
		<edge from-layer="340" from-port="4" to-layer="342" to-port="0"/>
		<edge from-layer="341" from-port="0" to-layer="342" to-port="1"/>
		<edge from-layer="342" from-port="2" to-layer="344" to-port="0"/>
		<edge from-layer="343" from-port="0" to-layer="344" to-port="1"/>
		<edge from-layer="344" from-port="2" to-layer="348" to-port="0"/>
		<edge from-layer="345" from-port="0" to-layer="348" to-port="1"/>
		<edge from-layer="346" from-port="0" to-layer="348" to-port="2"/>
		<edge from-layer="347" from-port="0" to-layer="348" to-port="3"/>
		<edge from-layer="348" from-port="4" to-layer="349" to-port="0"/>
		<edge from-layer="349" from-port="1" to-layer="350" to-port="1"/>
		<edge from-layer="350" from-port="2" to-layer="383" to-port="0"/>
		<edge from-layer="351" from-port="0" to-layer="354" to-port="1"/>
		<edge from-layer="352" from-port="0" to-layer="354" to-port="2"/>
		<edge from-layer="353" from-port="0" to-layer="354" to-port="3"/>
		<edge from-layer="354" from-port="4" to-layer="356" to-port="0"/>
		<edge from-layer="355" from-port="0" to-layer="356" to-port="1"/>
		<edge from-layer="356" from-port="2" to-layer="358" to-port="0"/>
		<edge from-layer="357" from-port="0" to-layer="358" to-port="1"/>
		<edge from-layer="358" from-port="2" to-layer="359" to-port="0"/>
		<edge from-layer="359" from-port="1" to-layer="361" to-port="0"/>
		<edge from-layer="360" from-port="0" to-layer="361" to-port="1"/>
		<edge from-layer="361" from-port="2" to-layer="362" to-port="0"/>
		<edge from-layer="362" from-port="1" to-layer="363" to-port="0"/>
		<edge from-layer="363" from-port="1" to-layer="366" to-port="0"/>
		<edge from-layer="364" from-port="0" to-layer="366" to-port="1"/>
		<edge from-layer="365" from-port="0" to-layer="366" to-port="2"/>
		<edge from-layer="366" from-port="3" to-layer="368" to-port="0"/>
		<edge from-layer="367" from-port="0" to-layer="368" to-port="1"/>
		<edge from-layer="368" from-port="2" to-layer="382" to-port="0"/>
		<edge from-layer="369" from-port="0" to-layer="380" to-port="0"/>
		<edge from-layer="370" from-port="0" to-layer="373" to-port="1"/>
		<edge from-layer="371" from-port="0" to-layer="373" to-port="2"/>
		<edge from-layer="372" from-port="0" to-layer="373" to-port="3"/>
		<edge from-layer="373" from-port="4" to-layer="375" to-port="0"/>
		<edge from-layer="374" from-port="0" to-layer="375" to-port="1"/>
		<edge from-layer="375" from-port="2" to-layer="377" to-port="0"/>
		<edge from-layer="376" from-port="0" to-layer="377" to-port="1"/>
		<edge from-layer="377" from-port="2" to-layer="380" to-port="1"/>
		<edge from-layer="378" from-port="0" to-layer="380" to-port="2"/>
		<edge from-layer="379" from-port="0" to-layer="380" to-port="3"/>
		<edge from-layer="380" from-port="4" to-layer="381" to-port="0"/>
		<edge from-layer="381" from-port="1" to-layer="382" to-port="1"/>
		<edge from-layer="382" from-port="2" to-layer="383" to-port="1"/>
		<edge from-layer="383" from-port="2" to-layer="384" to-port="0"/>
		<edge from-layer="384" from-port="1" to-layer="386" to-port="0"/>
		<edge from-layer="385" from-port="0" to-layer="386" to-port="1"/>
		<edge from-layer="386" from-port="2" to-layer="387" to-port="1"/>
		<edge from-layer="387" from-port="2" to-layer="397" to-port="0"/>
		<edge from-layer="388" from-port="0" to-layer="391" to-port="1"/>
		<edge from-layer="389" from-port="0" to-layer="391" to-port="2"/>
		<edge from-layer="390" from-port="0" to-layer="391" to-port="3"/>
		<edge from-layer="391" from-port="4" to-layer="392" to-port="0"/>
		<edge from-layer="392" from-port="1" to-layer="394" to-port="0"/>
		<edge from-layer="393" from-port="0" to-layer="394" to-port="1"/>
		<edge from-layer="394" from-port="2" to-layer="396" to-port="0"/>
		<edge from-layer="395" from-port="0" to-layer="396" to-port="1"/>
		<edge from-layer="396" from-port="2" to-layer="397" to-port="1"/>
		<edge from-layer="397" from-port="2" to-layer="401" to-port="0"/>
		<edge from-layer="398" from-port="0" to-layer="401" to-port="1"/>
		<edge from-layer="399" from-port="0" to-layer="401" to-port="2"/>
		<edge from-layer="400" from-port="0" to-layer="401" to-port="3"/>
		<edge from-layer="401" from-port="4" to-layer="418" to-port="0"/>
		<edge from-layer="402" from-port="1" to-layer="405" to-port="0"/>
		<edge from-layer="402" from-port="1" to-layer="421" to-port="0"/>
		<edge from-layer="403" from-port="0" to-layer="404" to-port="1"/>
		<edge from-layer="404" from-port="2" to-layer="405" to-port="1"/>
		<edge from-layer="405" from-port="2" to-layer="407" to-port="0"/>
		<edge from-layer="406" from-port="0" to-layer="407" to-port="1"/>
		<edge from-layer="407" from-port="2" to-layer="409" to-port="0"/>
		<edge from-layer="408" from-port="0" to-layer="409" to-port="1"/>
		<edge from-layer="409" from-port="2" to-layer="410" to-port="1"/>
		<edge from-layer="410" from-port="2" to-layer="411" to-port="0"/>
		<edge from-layer="411" from-port="1" to-layer="420" to-port="0"/>
		<edge from-layer="411" from-port="1" to-layer="413" to-port="0"/>
		<edge from-layer="412" from-port="0" to-layer="413" to-port="1"/>
		<edge from-layer="413" from-port="2" to-layer="415" to-port="0"/>
		<edge from-layer="414" from-port="0" to-layer="415" to-port="1"/>
		<edge from-layer="415" from-port="2" to-layer="417" to-port="0"/>
		<edge from-layer="416" from-port="0" to-layer="417" to-port="1"/>
		<edge from-layer="417" from-port="2" to-layer="418" to-port="1"/>
		<edge from-layer="418" from-port="2" to-layer="424" to-port="0"/>
		<edge from-layer="419" from-port="0" to-layer="420" to-port="1"/>
		<edge from-layer="420" from-port="2" to-layer="421" to-port="1"/>
		<edge from-layer="421" from-port="2" to-layer="423" to-port="0"/>
		<edge from-layer="422" from-port="0" to-layer="423" to-port="1"/>
		<edge from-layer="423" from-port="2" to-layer="424" to-port="1"/>
		<edge from-layer="423" from-port="2" to-layer="442" to-port="1"/>
		<edge from-layer="424" from-port="2" to-layer="451" to-port="0"/>
		<edge from-layer="424" from-port="2" to-layer="445" to-port="0"/>
		<edge from-layer="425" from-port="1" to-layer="427" to-port="0"/>
		<edge from-layer="426" from-port="0" to-layer="427" to-port="1"/>
		<edge from-layer="427" from-port="2" to-layer="437" to-port="0"/>
		<edge from-layer="428" from-port="0" to-layer="431" to-port="1"/>
		<edge from-layer="429" from-port="0" to-layer="431" to-port="2"/>
		<edge from-layer="430" from-port="0" to-layer="431" to-port="3"/>
		<edge from-layer="431" from-port="4" to-layer="432" to-port="0"/>
		<edge from-layer="432" from-port="1" to-layer="434" to-port="0"/>
		<edge from-layer="433" from-port="0" to-layer="434" to-port="1"/>
		<edge from-layer="434" from-port="2" to-layer="436" to-port="0"/>
		<edge from-layer="435" from-port="0" to-layer="436" to-port="1"/>
		<edge from-layer="436" from-port="2" to-layer="437" to-port="1"/>
		<edge from-layer="437" from-port="2" to-layer="441" to-port="0"/>
		<edge from-layer="438" from-port="0" to-layer="441" to-port="1"/>
		<edge from-layer="439" from-port="0" to-layer="441" to-port="2"/>
		<edge from-layer="440" from-port="0" to-layer="441" to-port="3"/>
		<edge from-layer="441" from-port="4" to-layer="442" to-port="0"/>
		<edge from-layer="442" from-port="2" to-layer="450" to-port="0"/>
		<edge from-layer="442" from-port="2" to-layer="444" to-port="0"/>
		<edge from-layer="443" from-port="0" to-layer="444" to-port="1"/>
		<edge from-layer="444" from-port="2" to-layer="445" to-port="1"/>
		<edge from-layer="445" from-port="2" to-layer="448" to-port="0"/>
		<edge from-layer="446" from-port="0" to-layer="448" to-port="1"/>
		<edge from-layer="447" from-port="0" to-layer="448" to-port="2"/>
		<edge from-layer="448" from-port="4" to-layer="455" to-port="1"/>
		<edge from-layer="448" from-port="3" to-layer="455" to-port="0"/>
		<edge from-layer="449" from-port="0" to-layer="450" to-port="1"/>
		<edge from-layer="450" from-port="2" to-layer="451" to-port="1"/>
		<edge from-layer="451" from-port="2" to-layer="454" to-port="0"/>
		<edge from-layer="452" from-port="0" to-layer="454" to-port="1"/>
		<edge from-layer="453" from-port="0" to-layer="454" to-port="2"/>
		<edge from-layer="454" from-port="4" to-layer="455" to-port="3"/>
		<edge from-layer="454" from-port="3" to-layer="455" to-port="2"/>
		<edge from-layer="455" from-port="4" to-layer="459" to-port="0"/>
		<edge from-layer="456" from-port="2" to-layer="458" to-port="0"/>
		<edge from-layer="457" from-port="0" to-layer="458" to-port="1"/>
		<edge from-layer="458" from-port="2" to-layer="459" to-port="1"/>
		<edge from-layer="459" from-port="2" to-layer="461" to-port="0"/>
		<edge from-layer="460" from-port="0" to-layer="461" to-port="1"/>
		<edge from-layer="461" from-port="2" to-layer="462" to-port="1"/>
		<edge from-layer="462" from-port="2" to-layer="464" to-port="0"/>
		<edge from-layer="463" from-port="0" to-layer="464" to-port="1"/>
		<edge from-layer="464" from-port="2" to-layer="489" to-port="0"/>
		<edge from-layer="464" from-port="2" to-layer="483" to-port="0"/>
		<edge from-layer="465" from-port="1" to-layer="467" to-port="0"/>
		<edge from-layer="466" from-port="1" to-layer="467" to-port="1"/>
		<edge from-layer="467" from-port="2" to-layer="469" to-port="0"/>
		<edge from-layer="468" from-port="0" to-layer="469" to-port="1"/>
		<edge from-layer="469" from-port="2" to-layer="475" to-port="0"/>
		<edge from-layer="470" from-port="1" to-layer="472" to-port="0"/>
		<edge from-layer="471" from-port="1" to-layer="472" to-port="1"/>
		<edge from-layer="472" from-port="2" to-layer="474" to-port="0"/>
		<edge from-layer="473" from-port="0" to-layer="474" to-port="1"/>
		<edge from-layer="474" from-port="2" to-layer="475" to-port="1"/>
		<edge from-layer="475" from-port="2" to-layer="477" to-port="0"/>
		<edge from-layer="476" from-port="0" to-layer="477" to-port="1"/>
		<edge from-layer="477" from-port="2" to-layer="479" to-port="0"/>
		<edge from-layer="478" from-port="0" to-layer="479" to-port="1"/>
		<edge from-layer="479" from-port="2" to-layer="483" to-port="1"/>
		<edge from-layer="479" from-port="2" to-layer="488" to-port="0"/>
		<edge from-layer="480" from-port="0" to-layer="483" to-port="2"/>
		<edge from-layer="481" from-port="0" to-layer="483" to-port="3"/>
		<edge from-layer="482" from-port="0" to-layer="483" to-port="4"/>
		<edge from-layer="483" from-port="5" to-layer="485" to-port="0"/>
		<edge from-layer="484" from-port="0" to-layer="485" to-port="1"/>
		<edge from-layer="485" from-port="2" to-layer="486" to-port="0"/>
		<edge from-layer="486" from-port="1" to-layer="487" to-port="0"/>
	</edges>
	<meta_data>
		<MO_version value="2021.4.2-3974-e2a469a3450-releases/2021/4"/>
		<cli_parameters>
			<caffe_parser_path value="DIR"/>
			<data_type value="FP16"/>
			<disable_nhwc_to_nchw value="False"/>
			<disable_omitting_optional value="False"/>
			<disable_resnet_optimization value="False"/>
			<disable_weights_compression value="False"/>
			<enable_concat_optimization value="False"/>
			<enable_flattening_nested_params value="False"/>
			<enable_ssd_gluoncv value="False"/>
			<extensions value="DIR"/>
			<framework value="onnx"/>
			<freeze_placeholder_with_value value="{}"/>
			<generate_deprecated_IR_V7 value="False"/>
			<input value="input_1,image_shape"/>
			<input_model value="DIR/tiny-yolov3-11.onnx"/>
			<input_model_is_text value="False"/>
			<input_shape value="[1,3,416,416],[1,2]"/>
			<k value="DIR/CustomLayersMapping.xml"/>
			<keep_shape_ops value="True"/>
			<legacy_ir_generation value="False"/>
			<legacy_mxnet_model value="False"/>
			<log_level value="ERROR"/>
			<mean_scale_values value="{}"/>
			<mean_values value="()"/>
			<model_name value="tiny-yolov3-11"/>
			<output_dir value="DIR"/>
			<placeholder_data_types value="{}"/>
			<placeholder_shapes value="{'input_1': array([  1,   3, 416, 416]), 'image_shape': array([1, 2])}"/>
			<progress value="False"/>
			<remove_memory value="False"/>
			<remove_output_softmax value="False"/>
			<reverse_input_channels value="False"/>
			<save_params_from_nd value="False"/>
			<scale_values value="()"/>
			<silent value="False"/>
			<static_shape value="False"/>
			<stream_output value="False"/>
			<transform value=""/>
			<unset unset_cli_parameters="batch, counts, disable_fusing, disable_gfusing, finegrain_fusing, input_checkpoint, input_meta_graph, input_proto, input_symbol, mean_file, mean_file_offsets, move_to_preprocess, nd_prefix_name, output, pretrained_model_name, saved_model_dir, saved_model_tags, scale, tensorboard_logdir, tensorflow_custom_layer_libraries, tensorflow_custom_operations_config_update, tensorflow_object_detection_api_pipeline_config, tensorflow_use_custom_operations_config, transformations_config"/>
		</cli_parameters>
	</meta_data>
</net>
